exp_cifar/models/cifar_tiny_resnet18_cifar10_distill_cifar10.model (torch_old, 63604 bytes, 22 tensors)

conv1.weight f4 [8, 3, 3, 3]
0	0x3d6c3f2e	0.05767744
1	0x3e01ce8c	0.12676448
2	0xbd6c4aee	-0.057688646
3	0xbe6b6988	-0.22989476
4	0xbe4ec1d5	-0.20191129
5	0xbe4fd8e0	-0.20297575
6	0x3d028af2	0.03187079
7	0x3e932beb	0.28744444
8	0x3e422be4	0.18962055
9	0x3909cb4c	0.00013141072
10	0x3e77b9e3	0.24192004
11	0x3c48e23f	0.0122609725
12	0xbe815fd7	-0.25268432
13	0xbe0acc10	-0.13554406
14	0xbe83adb6	-0.25718468
15	0x3e62c7a0	0.22146463
16	0x3ddf2e7c	0.10897538
17	0x3d842146	0.06451659
18	0x3e3783c4	0.17921358
19	0x3c0f6bbb	0.008753712
20	0x3dceb4e5	0.10093097
21	0xbe21742b	-0.15766971
22	0xbe2a4eeb	-0.16631667
23	0xbd882ce4	-0.06649187
24	0x3c9d8ba9	0.019231634
25	0x3bbe8173	0.0058137714
26	0x3d90431b	0.07044049
27	0xbe0476b4	-0.12935907
28	0x3e902b79	0.28158167
29	0x3c48228e	0.01221527
30	0xbdb51a0d	-0.088428594
31	0xbecf0922	-0.40436655
32	0x3e60f2c5	0.21967609
33	0x3e43d374	0.19123632
34	0xbd1169bf	-0.035501238
35	0xbd8a0a8c	-0.06740293
36	0xbe02075a	-0.12698117
37	0x3dd14fc9	0.10220296
38	0xbd8fb22d	-0.07016406
39	0xbba7cd69	-0.0051209223
40	0xbe8ccad9	-0.2749851
41	0x3e09c1c9	0.1345283
42	0x3e62cc7a	0.22148314
43	0x3cee8a1e	0.029118594
44	0xbdbc6d54	-0.0920054
45	0xbe306ec0	-0.17229748
46	0x3e24c2af	0.16089891
47	0x3e1f7c3d	0.15574737
48	0x3d458563	0.04822291
49	0xbec32ffa	-0.3812254
50	0x3e625ec1	0.22106458
51	0x3e3bf05a	0.18353406
52	0xbdb79c4d	-0.08965359
53	0xbe2682e6	-0.16260871
54	0xbe3d9fb1	-0.18517949
55	0x3e4d0931	0.20023037
56	0x3df4568b	0.11930569
57	0x3e0ce6ef	0.13759969
58	0x3d5729b9	0.052530024
59	0x3d29e96b	0.04148237
60	0x3adde09c	0.0016927901
61	0xbca5e078	-0.020248637
62	0x3e265c51	0.16246153
63	0xbe5668ab	-0.20938365
64	0x3db87f85	0.090086974
65	0xbdee0b01	-0.116231926
66	0xbd49c447	-0.04925945
67	0xbe01e03c	-0.12683195
68	0xbb573dc0	-0.0032843202
69	0x3d8a36d7	0.06748741
70	0xbc85681d	-0.016284997
71	0xbe64794b	-0.22311895
72	0xbdb4b07e	-0.08822726
73	0x3f177b64	0.59172654
74	0x3e8f513f	0.27991673
75	0x3eab300c	0.33435094
76	0x3e63ce4e	0.22246668
77	0x3eacd7f0	0.33758497
78	0x3e776c7d	0.24162479
79	0x3d9aad6b	0.07552608
80	0xbda96f4d	-0.08273182
81	0xbd357c91	-0.04430825
82	0xba5fbae6	-0.0008534625
83	0x3d9c7e7c	0.076413125
84	0x3ccf5b30	0.025312036
85	0x3df87215	0.121311344
86	0xbd6a25dd	-0.057165015
87	0x3cef6caa	0.02922662
88	0x3de0418b	0.10950001
89	0x3e1bf2b1	0.15229298
90	0x3e6c540f	0.23078941
91	0x3d192131	0.03738517
92	0x3cc7b4f1	0.024378272
93	0x3d9aa1ac	0.07550368
94	0x3e9724dd	0.29520312
95	0x3e2a23d4	0.1661523
96	0x3e737351	0.23774458
97	0xbd3146b8	-0.043280333
98	0x3e687787	0.22701846
99	0xbe860826	-0.26178092
100	0xbd356395	-0.044284422
101	0xbe10a190	-0.14124131
102	0xbe842a3e	-0.25813478
103	0xbc234664	-0.009965513
104	0xbea83efc	-0.32860553
105	0xbe2c2eaa	-0.16814676
106	0xbe0d4db6	-0.13799176
107	0xbe3e4b0b	-0.18583314
108	0xbcbcebfd	-0.023061747
109	0x3e6ee9c8	0.23331368
110	0xbe463fe5	-0.19360311
111	0x3e541529	0.20711197
112	0xbe95b8d7	-0.29242584
113	0x3cba4d62	0.022741977
114	0xbceb5c22	-0.028730456
115	0xbd672688	-0.05643323
116	0x3d863607	0.06553274
117	0xbe0c08a8	-0.13675177
118	0x3e8f919d	0.28040782
119	0xbe025fbc	-0.12731832
120	0x3e6557b9	0.22396745
121	0xbe236af8	-0.15958774
122	0xbb9c7d65	-0.0047756904
123	0xbdd59998	-0.10429686
124	0xbde1c755	-0.11024348
125	0x3e69a806	0.22818002
126	0xbda7b66f	-0.08189093
127	0x3e75aece	0.23992464
128	0xbe517a50	-0.20456815
129	0x3dfd74ab	0.12375768
130	0xbe68d940	-0.22739124
131	0x3c7112a9	0.014713922
132	0xbb1f8cd4	-0.0024345415
133	0xbe208090	-0.15674043
134	0x3e0de667	0.13857423
135	0xbde803a4	-0.113288194
136	0x3ce5a731	0.028033825
137	0xbcee3f44	-0.029082902
138	0x3e2cfcae	0.16893265
139	0x3e3c05cf	0.18361591
140	0x3e91f856	0.28509778
141	0xbd64fb1e	-0.055903547
142	0x3ee9c6c3	0.45659456
143	0x3e181e29	0.14855255
144	0xbd22939a	-0.039691545
145	0xbd8dc408	-0.069221556
146	0xbda52861	-0.08064342
147	0xbe42064a	-0.18947712
148	0xbe882ab4	-0.2659508
149	0xbe12582c	-0.14291447
150	0xbe26030a	-0.16212097
151	0xbea3fc4b	-0.32028422
152	0xbdcf0817	-0.10108965
153	0x3de0b9e1	0.109729536
154	0x3db0aa3d	0.086262204
155	0x3db9f73b	0.090803586
156	0x3d911e72	0.07085885
157	0x3d53f101	0.05174351
158	0xbe059b65	-0.1304756
159	0x3e479604	0.1949082
160	0xbe43e9c8	-0.19132149
161	0xbda16c1a	-0.07881947
162	0xbd6587df	-0.05603778
163	0x3e437474	0.19087392
164	0xbde51ad9	-0.111867614
165	0xbdae5cec	-0.08513817
166	0x3e20e538	0.1571244
167	0xbdf17bed	-0.11791215
168	0xbe0eb7f2	-0.13937357
169	0x3e5ccddd	0.21562906
170	0xbd89a6fe	-0.06721304
171	0xbdc3c0da	-0.09558268
172	0x3e1dd233	0.15412216
173	0xbd874743	-0.06605389
174	0xbe436d75	-0.19084723
175	0x3e9cbfe0	0.3061514
176	0xbde73ec0	-0.112912655
177	0xbdc4395a	-0.095812514
178	0x3e895b54	0.2682749
179	0xbe22f742	-0.15914634
180	0xbdfa4e1d	-0.1222193
181	0x3e2bdd6c	0.16783684
182	0xbd633581	-0.055470947
183	0xbe0969fd	-0.13419338
184	0x3e9bda56	0.30440015
185	0xbe278813	-0.16360502
186	0xbdb92671	-0.09040535
187	0x3e462cd0	0.19353032
188	0xbdbf329c	-0.09335825
189	0x3e83564d	0.2565178
190	0xbe3055e8	-0.1722027
191	0xbe68d1bd	-0.22736259
192	0xbd95d3d4	-0.07315794
193	0x3eb92dd8	0.36167789
194	0x3e224d66	0.15849838
195	0xbe42ad6d	-0.19011469
196	0xbd3030ee	-0.043015413
197	0xbc2d2375	-0.010567536
198	0xbd8c852e	-0.068613395
199	0x3dad74f3	0.08469572
200	0x3cd57540	0.026056886
201	0x3d051076	0.0324864
202	0x3edf694f	0.43635032
203	0x3d067c4c	0.032833382
204	0xbe276428	-0.163468
205	0xbeb6bfbe	-0.35693163
206	0xbe066af4	-0.13126737
207	0x3e377314	0.17914993
208	0xbe27f5c1	-0.16402341
209	0x3ccd7a27	0.02508266
210	0xbcd13719	-0.025538968
211	0x3ddec7f8	0.10877985
212	0x3db298e3	0.08720567
213	0xbb81c9d0	-0.0039608255
214	0xbdbd9122	-0.092561975
215	0xbd8d74d4	-0.06907049

conv1.bias f4 [8]
0	0x3cf665c8	0.03007783
1	0x3e0a0213	0.13477354
2	0x3e9e1e40	0.30882454
3	0x3dc8200a	0.09771736
4	0xbdce5635	-0.100750364
5	0xbbdc2ecb	-0.0067194453
6	0x3d8d670d	0.06904421
7	0x3e2b33d8	0.16718996

conv1_bn.weight f4 [8]
0	0x3ee6ffe0	0.45117092
1	0x3ef3a0da	0.47583658
2	0x3f2adc24	0.6674216
3	0x3eed12c4	0.4630338
4	0x3ef27542	0.47355086
5	0x3f091e2c	0.53561664
6	0x3f30e507	0.6909947
7	0x3ec82acb	0.39095148

conv1_bn.bias f4 [8]
0	0xbcb14694	-0.0216401
1	0xbd86e40f	-0.065864675
2	0x3f55979f	0.8343448
3	0x3eddb801	0.43304446
4	0x3e944b88	0.28963876
5	0x3ecbf9e8	0.398391
6	0x3bf084da	0.007340056
7	0xbc0bb743	-0.00852758

conv1_bn.running_mean f4 [8]
0	0x3c9e3773	0.01931355
1	0x3e1f5bf5	0.15562423
2	0xbcc854ba	-0.024454463
3	0x3d4d99a0	0.050195336
4	0xbda223dd	-0.07916997
5	0x3d027714	0.031851843
6	0x3da5a4af	0.080880515
7	0x3e395d82	0.18102077

conv1_bn.running_var f4 [8]
0	0x3e9b1694	0.30290663
1	0x3e2a4781	0.16628839
2	0x404b6ab2	3.1783872
3	0x3f0545f7	0.5205988
4	0x3da1cd25	0.07900456
5	0x3e585c42	0.21128944
6	0x3eb3649b	0.35037693
7	0x3e961833	0.29315338

conv2.weight f4 [16, 8, 3, 3]
0	0x3d232aa3	0.039835583
1	0x3d0d9114	0.034562185
2	0xba2e12b6	-0.00066403614
3	0xbd239dda	-0.03994546
4	0xbd85555f	-0.06510424
5	0xbcd0e416	-0.025499385
6	0xbd2786a8	-0.040899903
7	0xbc7c907b	-0.015415306
8	0xbe306b11	-0.17228343
9	0xbcd6476b	-0.026157102
10	0xbe39c27f	-0.181406
11	0xbae95665	-0.0017802237
12	0x3d4f62c0	0.050631285
13	0x3c8d5bc2	0.017255668
14	0x3bd0937c	0.0063652378
15	0xbb9bd30d	-0.004755384
16	0x3dba4ec1	0.09097052
17	0x3cbc4983	0.022984272
18	0xbd797a6d	-0.06090777
19	0x3e03327d	0.12812229
20	0x3e3f932d	0.18708487
21	0x3e11ef1e	0.14251372
22	0x3dc81833	0.09770241
23	0x3e141815	0.14462312
24	0x3d456767	0.048194315
25	0x3d41a6f3	0.047278356
26	0xbc6c56a4	-0.014424954
27	0xbeaaa3be	-0.3332805
28	0xbf173b9a	-0.5907532
29	0xbf0b11ab	-0.54323834
30	0xbe8eb65f	-0.27873513
31	0xbe9f5da0	-0.31126118
32	0xbe629554	-0.22127277
33	0xbd4d600c	-0.050140426
34	0x3e20592f	0.15659021
35	0xbe2f36df	-0.17110775
36	0x3d8efcaf	0.06981789
37	0x3e08f2f6	0.13373932
38	0x3df69a32	0.12041129
39	0x3cb2cec9	0.021827118
40	0x3d4eddd7	0.05050453
41	0x3e3e4a64	0.18583065
42	0x3c3c562a	0.0114951525
43	0x3dced36f	0.100989215
44	0x3d8b9654	0.06815782
45	0xbe4ed741	-0.201993
46	0xbecb313f	-0.3968601
47	0xbd34114b	-0.043961804
48	0xbdd30fc8	-0.103057444
49	0xbd95551e	-0.072916254
50	0x3e6ac428	0.2292639
51	0xbe6b1a01	-0.22959138
52	0x3e27e320	0.16395235
53	0x3d71b15b	0.05900703
54	0x3c911f85	0.017715225
55	0x3cb984ed	0.022646392
56	0x3d03ac63	0.032146823
57	0xbb1489ae	-0.0022665071
58	0xbe0b1ed8	-0.13585985
59	0xb9d304c3	-0.00040248604
60	0xbd7ada5d	-0.061243404
61	0xbc3a20e5	-0.011360382
62	0xbd1bac00	-0.03800583
63	0x3d769c25	0.060207505
64	0xbd030d9b	-0.031995397
65	0x3dd731e4	0.10507563
66	0x3e24f2eb	0.16108291
67	0x3d08bdda	0.03338418
68	0xbd84e22d	-0.06488452
69	0x3d815ef8	0.06316942
70	0x3d923697	0.071393184
71	0x3c5ca1e9	0.013466337
72	0x3e906a1a	0.2820595
73	0x3ce55361	0.02799386
74	0x3ded0fe9	0.115753
75	0x3eb58021	0.35449317
76	0x3e4907c9	0.19631876
77	0x3e529b4d	0.20567055
78	0x3e5c9a48	0.21543229
79	0x3e53b803	0.20675664
80	0x3e4c231b	0.19935267
81	0x3cf0056e	0.029299464
82	0xbdaa2c02	-0.08309175
83	0xbdb88e88	-0.09011561
84	0xbce62dcc	-0.02809801
85	0xbe44c8ba	-0.19217196
86	0xbdf30b30	-0.11867368
87	0xbd30cd7a	-0.043164708
88	0xbe1c4d87	-0.1526395
89	0xbdb43948	-0.08799988
90	0xbd709483	-0.05873538
91	0x3dbb9d16	0.09160821
92	0x3ea08ca7	0.3135731
93	0xbcd97ca7	-0.026548697
94	0xbda26abe	-0.07930516
95	0x3e780800	0.24221802
96	0x3d538c73	0.051647615
97	0xbe24458e	-0.16042158
98	0xbdc64259	-0.096806236
99	0x3c4f7b07	0.012663609
100	0x3e3117c0	0.17294216
101	0x3e207cdd	0.15672632
102	0x3e9f675c	0.31133544
103	0x3e42490e	0.1897318
104	0xbd8de8cf	-0.0692917
105	0xbd905bb3	-0.0704874
106	0xbeb821ab	-0.35963187
107	0xbebd02f9	-0.3691633
108	0x3d2f9aab	0.042872112
109	0xbd067278	-0.03282401
110	0xbd9bbf26	-0.07604818
111	0xbc18b50a	-0.009320507
112	0xbd50c772	-0.050971456
113	0x3cf32e6c	0.029685222
114	0x3d86abfd	0.06575773
115	0x3d8cfc6d	0.06884084
116	0x3daf0cb7	0.08547347
117	0xbd418893	-0.047249388
118	0x3de37aec	0.1110743
119	0x3da55eb3	0.08074703
120	0xbcf89e51	-0.030348929
121	0x3e35abaf	0.17741273
122	0xbcb37eea	-0.021911103
123	0xbdf780d6	-0.120851204
124	0xbe83939c	-0.25698555
125	0xbe4b05d6	-0.19826445
126	0x3dcc7e45	0.099850215
127	0x3e0f9862	0.14022973
128	0xbd92d677	-0.07169812
129	0xbd7d43fc	-0.061832413
130	0xbd8560e5	-0.06512622
131	0xbd9bd5d4	-0.07609144
132	0xbdcfe010	-0.101501584
133	0xbd7ae3f0	-0.061252534
134	0x3d371132	0.044694133
135	0x3dc97fba	0.09838815
136	0xbc524545	-0.012833898
137	0x3e7c6b67	0.24650346
138	0x3e5a54a8	0.21321356
139	0x3eaf215c	0.3420514
140	0x3ea8ece8	0.32993245
141	0x3e1773ce	0.1479027
142	0xbd81877d	-0.063246705
143	0xbe1845c9	-0.14870371
144	0xbd849871	-0.064743884
145	0xbdce2c33	-0.10067024
146	0xbcff07fe	-0.03113174
147	0xbe30fc06	-0.1728364
148	0xbd9b222e	-0.07574879
149	0xbe1b75fa	-0.15181723
150	0xbe82c56d	-0.2554125
151	0xbdc76cc2	-0.09737541
152	0xbe2fadd6	-0.17156157
153	0x3da655e0	0.08121848
154	0x3e89a6ec	0.26885164
155	0x3e43d10c	0.19122714
156	0xbc6637eb	-0.014051418
157	0x3e810460	0.2519865
158	0x3f09ddd7	0.53854126
159	0x3e4f6d50	0.20256543
160	0x3e4cddd7	0.200065
161	0x3f0fef1e	0.5622424
162	0x3dc4c5db	0.096080504
163	0x3e06dc08	0.13169873
164	0xbe4cee7f	-0.20012854
165	0x3d6d10a7	0.05787721
166	0xbc6d3401	-0.014477731
167	0xbdad0753	-0.084486626
168	0x3d4c5a30	0.049890697
169	0x3d1bc1f9	0.038026784
170	0x3c4562a4	0.012047444
171	0x3e868261	0.26271346
172	0xbe3483b5	-0.17628367
173	0x3e19cf7f	0.1502056
174	0x3ead1993	0.33808574
175	0xbe6df08c	-0.23236293
176	0xbdb83976	-0.08995335
177	0x3e036922	0.12833074
178	0xbe2356c4	-0.15951067
179	0xbdafb7d2	-0.08579983
180	0x3da33d44	0.0797067
181	0xbd98121b	-0.07425328
182	0xbd9ebef9	-0.07751269
183	0x3e1697e2	0.14706376
184	0x3dc21f56	0.09478633
185	0xbdd61ca9	-0.10454685
186	0x3e2a8b42	0.16654685
187	0x3d794623	0.060857903
188	0xbde1a16f	-0.11017119
189	0x3e1cc9b4	0.15311319
190	0xbe4388dc	-0.19095176
191	0x3d38c053	0.04510529
192	0x3e1db082	0.15399364
193	0xbe6ee208	-0.23328412
194	0xbd37c02d	-0.044861007
195	0x3dba7fc2	0.09106399
196	0x3c7e489d	0.015520242
197	0xbdcedadb	-0.10100337
198	0xbd6cc636	-0.057806216
199	0xbdb05c66	-0.086113736
200	0x3d1faa52	0.03898079
201	0xbcaaca7f	-0.02084851
202	0x3ca910f1	0.020637961
203	0xbde28296	-0.110600635
204	0x3e2dd93c	0.169774
205	0x3ea618b1	0.32440713
206	0x3e79e264	0.24402767
207	0xbd293ac6	-0.041315816
208	0x3dc97942	0.09837581
209	0x3e1d0b1b	0.15336268
210	0x3cff3cd7	0.03115694
211	0xbd4cad1f	-0.04996979
212	0x3def07a7	0.116713814
213	0x3df1f493	0.11814227
214	0xbd5e6ec3	-0.05430485
215	0xbe38f88e	-0.18063566
216	0x3dd188f2	0.10231198
217	0xbd356047	-0.04428127
218	0x3bc482da	0.005997044
219	0xbe697a91	-0.22800662
220	0xbd917832	-0.071030036
221	0x3e3415f5	0.17586501
222	0xbe44ad19	-0.19206657
223	0x3daba8f0	0.08381832
224	0x3d57b45e	0.052662246
225	0x3ca18df1	0.019721003
226	0x3cae31bb	0.021263948
227	0xbdb133d0	-0.086524606
228	0xbd92171d	-0.07133315
229	0xbd074594	-0.03302534
230	0xbd293360	-0.04130876
231	0xbcf1e4d3	-0.029528057
232	0x3cc28ff3	0.023750281
233	0xbc28047f	-0.010254978
234	0x3e1ae556	0.15126547
235	0xbb583ae3	-0.0032994084
236	0xbcd36509	-0.025805013
237	0x3eb4c57a	0.35306913
238	0xbda464f5	-0.080270685
239	0xbf09e2a6	-0.53861463
240	0x3ef7b42c	0.48379648
241	0xbdcff628	-0.101543725
242	0xbee20e65	-0.44151607
243	0x3d931697	0.07182043
244	0x3d7cd251	0.06172401
245	0x3d0cf668	0.03441468
246	0x3df096f4	0.11747542
247	0xbd3d8717	-0.04627141
248	0xbdcf4553	-0.101206444
249	0x3d8d00ce	0.06884919
250	0x3d0d39e0	0.034479022
251	0xbdb35f3e	-0.087584004
252	0x3d5edf80	0.054412365
253	0xbcda6256	-0.026658218
254	0xbcdf4a7f	-0.027257202
255	0xbdcae027	-0.09906035

conv2.bias f4 [16]
0	0x3dea77b4	0.11448613
1	0x3dc30820	0.09523034
2	0xbb4f881d	-0.0031666823
3	0x3e1ace94	0.15117866
4	0x3dfc956f	0.1233319
5	0x3de783b6	0.11304419
6	0xbe25767a	-0.16158476
7	0x3d3baa58	0.04581675
8	0x3df09512	0.11747183
9	0x3e73b41f	0.2379918
10	0xbcb0b263	-0.021569436
11	0x3e84f590	0.259686
12	0x3d364629	0.044500504
13	0xbe575044	-0.21026713
14	0x3d1f0fe0	0.0388335
15	0x3ccc268b	0.024920722

conv2_bn.weight f4 [16]
0	0x3f1a6579	0.60311085
1	0x3ec59d71	0.3859668
2	0x3eb20d62	0.34775835
3	0x3efa4bc1	0.4888592
4	0x3edf85fc	0.4365691
5	0x3f248437	0.64264244
6	0x3f038baf	0.51385015
7	0x3f2ea700	0.6822357
8	0x3f285e0d	0.6576851
9	0x3f25758a	0.64632475
10	0x3ed906aa	0.42387897
11	0x3e943256	0.28944653
12	0x3ea1b3fc	0.3158263
13	0x3f646637	0.8921847
14	0x3e9319d2	0.28730637
15	0x3ed1f163	0.41004476

conv2_bn.bias f4 [16]
0	0x3dfa290e	0.12214862
1	0x3ed9df54	0.42553198
2	0x3ec7bed8	0.3901279
3	0xbe5ebc57	-0.21751533
4	0x3d6aab41	0.057292227
5	0xbe5afa5c	-0.21384567
6	0xbe564cf3	-0.20927791
7	0x3e2ced11	0.16887309
8	0xbeae5b7e	-0.34054178
9	0xbd5cc3cc	-0.053897664
10	0x3da7af53	0.08187737
11	0x3e4a288b	0.19742028
12	0x3d1f8cab	0.03895251
13	0xbec4ed72	-0.38462406
14	0x3e18d148	0.14923584
15	0x3e0a6bab	0.13517635

conv2_bn.running_mean f4 [16]
0	0xbec66269	-0.38746956
1	0x3f1ec07c	0.6201246
2	0x3f4fd269	0.81180435
3	0xbecaaa0b	-0.39582857
4	0xbf3776f1	-0.71665865
5	0xbf555f76	-0.83348787
6	0xbf07a7cd	-0.5299042
7	0xbfd40c21	-1.6566201
8	0xbe9202e1	-0.2851782
9	0xbecc1e44	-0.3986684
10	0x3f4d273a	0.8013798
11	0xbf8074a3	-1.0035595
12	0x3f875f42	1.0575945
13	0xc01f8723	-2.492623
14	0x3cc73495	0.024317065
15	0xbfda2870	-1.704359

conv2_bn.running_var f4 [16]
0	0x3f98b95d	1.1931568
1	0x3ecaf418	0.39639354
2	0x3eb3aa5f	0.3509092
3	0x3e978ec0	0.29601097
4	0x3ecb4b47	0.3970587
5	0x3edde606	0.43339556
6	0x3f05df37	0.52293724
7	0x3fa1cee9	1.2641269
8	0x3ec10b97	0.37704155
9	0x3f16ecf1	0.58955294
10	0x3e96e78c	0.2947353
11	0x3e88e8f0	0.26740217
12	0x3f04a9f4	0.5182183
13	0x3f797f96	0.97460306
14	0x3ea0d44f	0.3141198
15	0x3efd7a35	0.495073

conv3.weight f4 [32, 16, 3, 3]
0	0x3d4030b9	0.046921466
1	0x3af9b1cc	0.001905018
2	0x3dfe2f60	0.1241138
3	0x3da7ac0a	0.08187111
4	0x3d8dcdd6	0.06924026
5	0x3e4d56eb	0.20052688
6	0xbe619215	-0.22028382
7	0xbeaae2c3	-0.3337613
8	0xbe7f6082	-0.24939159
9	0x3d6ee4da	0.05832372
10	0xbdd97e30	-0.106197715
11	0xbd08478e	-0.033271365
12	0x3d1efaea	0.03881351
13	0xbdf31e2c	-0.11870989
14	0x3e13f12d	0.1444747
15	0x3e0dda48	0.13852799
16	0xbdc2dfff	-0.0951538
17	0xbd465444	-0.048420206
18	0x3e3cc44d	0.18434258
19	0x3d6ef391	0.05833775
20	0x3de1bfd1	0.11022914
21	0x3c76a626	0.015054261
22	0x3cc82670	0.02443239
23	0xbdae9df9	-0.08526225
24	0xbe210d50	-0.15727735
25	0x3ddeba3c	0.10875365
26	0x3de04894	0.10951343
27	0x3e05675d	0.13027711
28	0x3e093e01	0.13402559
29	0x3ddced9c	0.10787508
30	0xbd103249	-0.035204206
31	0xbd4514b2	-0.04811544
32	0x3ce0234e	0.027360585
33	0xbe2d2947	-0.16910277
34	0xbeb69ee0	-0.35668087
35	0xbededde0	-0.43528652
36	0xbd9a2ae6	-0.075277135
37	0x3daf5de9	0.08562834
38	0xbd4a133e	-0.049334757
39	0xbcb7cfd9	-0.022437977
40	0xbe5a9251	-0.21344878
41	0x3dcc5f62	0.0997913
42	0x3e39eda8	0.18157065
43	0xbe35a7e7	-0.17739831
44	0x3e329045	0.17437847
45	0xbdb1fbc4	-0.086905986
46	0xbb34de69	-0.0027598387
47	0x3d314f68	0.04328862
48	0x3df3a212	0.11896147
49	0x3b966690	0.004589863
50	0xbe13e447	-0.1444255
51	0xbea28bbe	-0.3174724
52	0xbe1ba70d	-0.15200444
53	0x3d9c01a3	0.076175
54	0xbd7b21d3	-0.061311554
55	0x3dc498ec	0.0959948
56	0xbd1844bb	-0.03717492
57	0x3e05e6d8	0.13076341
58	0x3dbfcd7e	0.093653664
59	0x3d31034b	0.04321603
60	0x3d83fcf9	0.06444735
61	0x3dc441a6	0.09582834
62	0xbda4f013	-0.08053603
63	0xbde44f1f	-0.11147904
64	0x3bfb69cc	0.007672524
65	0x3ca69fb0	0.020339817
66	0x3d950d6f	0.07277953
67	0x3c947f5b	0.018127134
68	0x3df15899	0.11784477
69	0x3d05d23a	0.03267119
70	0xbe47b4af	-0.19502519
71	0xbd600f99	-0.054702375
72	0xbc6b07ea	-0.014345149
73	0x3c8e1389	0.0173433
74	0x3bd21439	0.006411102
75	0x3d1cdb86	0.03829529
76	0xbe6d6c9c	-0.23185962
77	0xbc3c7cae	-0.011504335
78	0x3e454e9c	0.19268268
79	0xbec737f3	-0.38909873
80	0x3c195326	0.009358203
81	0x3df955ff	0.121746056
82	0x3b9ea094	0.0048409197
83	0x3d822b89	0.0635596
84	0xbdffa960	-0.124834776
85	0xbe00362e	-0.12520668
86	0xbd2eb3ff	-0.042652126
87	0xbe8fcfe7	-0.28088304
88	0xbe09bc72	-0.13450792
89	0xbe368ba9	-0.17826714
90	0xbd8ba4a4	-0.06818512
91	0x3d30b524	0.0431415
92	0x3e09f854	0.13473636
93	0xbe4d727b	-0.20063202
94	0xbdd8f85d	-0.105942465
95	0x3e914155	0.28370157
96	0xbd9ee41d	-0.07758353
97	0x3d955630	0.072918296
98	0xbd9948eb	-0.07484611
99	0xbdfdfe1a	-0.12401982
100	0x3e60b277	0.21943079
101	0x3b3decbd	0.0028980218
102	0x3da28404	0.07935336
103	0xbde53cfd	-0.11193273
104	0x3e7fe099	0.24988021
105	0xbe288afd	-0.1645927
106	0xbcef60a0	-0.02922088
107	0x3e674f86	0.2258893
108	0x3b18fa5c	0.0023342585
109	0xbddf076b	-0.10890087
110	0x3da718fc	0.08159062
111	0xbe0e0c57	-0.13871895
112	0xbd80ac5b	-0.06282874
113	0xbcc964f0	-0.024584264
114	0xbea42ca0	-0.32065296
115	0x3db4a54d	0.08820591
116	0xbe73030a	-0.23731628
117	0xbdc45cae	-0.0958799
118	0x3d6bcf84	0.05757095
119	0xbcd8ccb6	-0.026464801
120	0x3d42ead3	0.047587227
121	0xbe182217	-0.14856754
122	0xbb0d3a2a	-0.002154956
123	0x3ea25a51	0.3170953
124	0xbf339218	-0.70144796
125	0x3efd006f	0.49414393
126	0xbd57a499	-0.052647207
127	0xbcdb2202	-0.026749615
128	0x3d39a656	0.045324646
129	0xbe6f8182	-0.23389247
130	0xbd02c604	-0.031927124
131	0x3d650cd9	0.055920456
132	0xbdc3f886	-0.095688865
133	0xbe1d4436	-0.15358052
134	0x3d9bd332	0.07608642
135	0x3dbc787d	0.09202669
136	0xbe553f5c	-0.20824951
137	0xbd5f65bc	-0.05454038
138	0xbb2da5b9	-0.0026496483
139	0x3dd7cb89	0.10536868
140	0xbd4ff0e4	-0.05076684
141	0xbe52a38e	-0.20570204
142	0x3dfb8c10	0.12282574
143	0xbe7be11c	-0.24597591
144	0xbe845049	-0.25842503
145	0x3e540b66	0.20707473
146	0xbdd5007b	-0.10400482
147	0xbdcc2785	-0.09968475
148	0x3ec840a4	0.39111817
149	0x3ec399bd	0.3820323
150	0xbef1a33b	-0.47194847
151	0x3e0674c4	0.1313048
152	0x3e1d17ad	0.15341063
153	0xbe43e3a2	-0.19129804
154	0x3ead2727	0.33818933
155	0xba6b83ce	-0.0008984179
156	0xbe3a0d06	-0.1816903
157	0x3d8b3e59	0.06799001
158	0xbd60d673	-0.054892015
159	0xbe61d961	-0.2205558
160	0x3d5f03af	0.054446872
161	0xbe1241d0	-0.14282918
162	0xbd9cf5ec	-0.076640934
163	0x3cba06e3	0.022708362
164	0x3e83703f	0.25671574
165	0xbdf6738a	-0.12033756
166	0x3e51fdd3	0.20506983
167	0x3dca01d5	0.09863631
168	0xbd87db74	-0.06633654
169	0x3e4d42f8	0.20045078
170	0x3d4b1b0b	0.049586337
171	0x3daf2377	0.08551686
172	0x3d1ea803	0.038734447
173	0x3e19d8ff	0.15024184
174	0xbd3e2007	-0.046417262
175	0xbd611edc	-0.05496107
176	0xbe224937	-0.15848242
177	0xbc42ea36	-0.011896661
178	0xbd7bfd7c	-0.06152104
179	0x3e170ba4	0.14750534
180	0x3e482174	0.19544011
181	0x3df1ec54	0.11812654
182	0xbd27c15d	-0.04095589
183	0xbd000b0d	-0.03126054
184	0xbe183c3b	-0.14866726
185	0xbdeb7611	-0.11497129
186	0x3e658160	0.22412634
187	0xbe48176f	-0.19540189
188	0x3d751375	0.05983301
189	0xbd44209b	-0.047882657
190	0xbd953f7d	-0.072875
191	0x3e0e4a11	0.13895442
192	0xbca25d37	-0.019819839
193	0xbd22b0e8	-0.039719492
194	0xbd27c027	-0.040954735
195	0x3d8b0255	0.06787554
196	0x3d413ba0	0.047176003
197	0xb9b55f06	-0.00034593808
198	0xbd1b0161	-0.037843112
199	0x3db96ea7	0.090543084
200	0x3d9d9e8f	0.07696258
201	0xbde6c224	-0.11267498
202	0x3db3a794	0.08772197
203	0xbdc799d1	-0.09746135
204	0xbe73764d	-0.23775597
205	0x3e82a801	0.25518802
206	0xbd54b59c	-0.05193101
207	0xbc8b8459	-0.017030882
208	0x3dc8b9a9	0.09801037
209	0xbcf6f15c	-0.030144386
210	0xbd499f8b	-0.049224418
211	0x3ae32c46	0.001733192
212	0xbe02ec34	-0.12785417
213	0xbd36815b	-0.044556957
214	0x3d1929b1	0.037393276
215	0xbd86ecf4	-0.06588164
216	0xbe219bac	-0.1578204
217	0x3d796f13	0.060896944
218	0x3d429da5	0.047513623
219	0xbdeb806c	-0.11499104
220	0x3daf3b83	0.08556273
221	0x3dddd19e	0.10830997
222	0xbd81d1be	-0.06338833
223	0x3da385c1	0.07984496
224	0x3e6739fa	0.2258071
225	0x3e18f85a	0.14938489
226	0xbbd23d60	-0.006416008
227	0xbe17b195	-0.14813836
228	0x3dd063ac	0.10175261
229	0x3c7d0eab	0.015445392
230	0xbd4a1fdb	-0.049346786
231	0x3e941e1a	0.28929216
232	0x3d82df13	0.06390204
233	0x3df19e4e	0.11797772
234	0x3e097794	0.13424522
235	0x3e843516	0.2582175
236	0xbdb12535	-0.08649675
237	0xbe6ced99	-0.23137511
238	0x3d8f648b	0.07001599
239	0x3c6d72a4	0.0144926645
240	0xbd1026d8	-0.035193294
241	0xbc00717d	-0.007839558
242	0x3d83a337	0.06427615
243	0xbe3e99c5	-0.18613346
244	0x3dd9e312	0.10639013
245	0x3e7c9b7b	0.24668686
246	0xbd6cf248	-0.057848245
247	0x38458675	4.7093683e-05
248	0x3e441eb1	0.19152333
249	0xbd34507d	-0.044022072
250	0x3cb9ceb7	0.022681577
251	0x3dda506c	0.106598705
252	0x3d839932	0.06425704
253	0xbcb0dbd8	-0.021589205
254	0xbe81256a	-0.25223857
255	0x3e0238c0	0.12716961

conv3.bias f4 [32]
0	0x3df0c2f3	0.117559336
1	0xbcf6b4d2	-0.030115519
2	0xbe3d74e9	-0.18501629
3	0x3e38ac74	0.18034536
4	0xbdbdf043	-0.09274342
5	0xbb8ef1f2	-0.004362338
6	0x3ddcbb73	0.107779406
7	0x3c9e0887	0.019291176
8	0xbd9b65a4	-0.07587746
9	0xbd600e54	-0.054701164
10	0x3ddf8c98	0.10915488
11	0xbd3f5bf2	-0.046718545
12	0xbab78c5b	-0.0014003621
13	0x3b8cffc8	0.0043029524
14	0x3e02e824	0.12783867
15	0xbca670c4	-0.020317443
16	0xbe0f333a	-0.13984385
17	0x3d4c9c55	0.049953777
18	0x3e060b8b	0.13090341
19	0x3dfcb05a	0.12338324
20	0xbe1cfb65	-0.15330274
21	0x3d9d9fc7	0.07696491
22	0xbdbf79e6	-0.09349422
23	0xbcc8b889	-0.024502056
24	0x3d06c6c9	0.03290442
25	0x3db5aed2	0.08871235
26	0xbe1c2f6b	-0.15252464
27	0x3e01d054	0.12677127
28	0xbd260757	-0.040534344
29	0xbdbde9c3	-0.09273102
30	0x3b9b77e3	0.004744516
31	0xba707d7e	-0.0009173973

conv3_bn.weight f4 [32]
0	0x3f343005	0.7038577
1	0x3f6057f4	0.87634206
2	0x3f5205ba	0.8203999
3	0x3f8a3ff1	1.0800763
4	0x3f8f30c8	1.1186762
5	0x3f3b13f6	0.7307733
6	0x3f1edbbe	0.6205405
7	0x3f782ab9	0.9694019
8	0x3f74e017	0.95654434
9	0x3f42a976	0.76039827
10	0x3f65d1af	0.89773077
11	0x3f4a3604	0.7898867
12	0x3f3fda9a	0.74942935
13	0x3f679795	0.9046567
14	0x3f248428	0.64264154
15	0x3f8ac4cd	1.0841309
16	0x3f95b625	1.1696211
17	0x3f2b0cd7	0.6681647
18	0x3f613131	0.87965685
19	0x3f33369d	0.7000521
20	0x3f7785a4	0.96688294
21	0x3f5f3b99	0.87200314
22	0x3f7e6362	0.99370396
23	0x3f45f3e4	0.7732527
24	0x3f7b046a	0.9805361
25	0x3f58d544	0.8470042
26	0x3f830590	1.0236073
27	0x3f3e7489	0.7439657
28	0x3f560c6e	0.83612716
29	0x3f2a226b	0.6645877
30	0x3f366df0	0.712615
31	0x3f18f7ed	0.59753305

conv3_bn.bias f4 [32]
0	0xbed5b424	-0.41739
1	0xbe97b6ab	-0.29631552
2	0xbe77b4a6	-0.24190006
3	0xbd9f200f	-0.077697866
4	0xbe17fdbf	-0.1484289
5	0xbe86dc3b	-0.26339898
6	0xbc8db8bf	-0.017300008
7	0xbe5fd830	-0.21859813
8	0x3d4bec05	0.049785633
9	0xbc5ce181	-0.013481499
10	0xbe2e196f	-0.1700189
11	0x3b5db0df	0.0033827347
12	0xbe63855b	-0.2221884
13	0xbd42d01a	-0.047561742
14	0xbdd9ba09	-0.106311865
15	0xbe6c943c	-0.23103422
16	0xbe8977d7	-0.26849243
17	0xbd84d161	-0.06485248
18	0xbdd60c7f	-0.10451602
19	0xbde20cc8	-0.11037594
20	0xbe5f06a7	-0.21779881
21	0xbe2f0377	-0.17091165
22	0x3e48b5d9	0.1960062
23	0xbe854061	-0.2602568
24	0xbdbb5901	-0.091478355
25	0x3dae2d45	0.08504728
26	0xbe8bb47f	-0.27286145
27	0xbd31955f	-0.043355342
28	0xbec0d1a5	-0.37659946
29	0xbe2a53c8	-0.16633523
30	0xbe0709d0	-0.13187337
31	0x3e07eae9	0.13273205

conv3_bn.running_mean f4 [32]
0	0xbf131aa8	-0.5746255
1	0x3ee5bcf4	0.44870722
2	0xbf7879db	-0.97060937
3	0xbe6c4061	-0.23071434
4	0xc03ecbd8	-2.9811916
5	0xbea88c1a	-0.3291939
6	0xbe59260e	-0.21205923
7	0xbfa69140	-1.3013077
8	0xc011cc3d	-2.2780907
9	0xc009c160	-2.1524277
10	0xc00fef45	-2.2489789
11	0xbf9452b6	-1.1587741
12	0xbf6059ae	-0.8763684
13	0xbef8853a	-0.48539144
14	0x3f6ea371	0.9321814
15	0xbfacb2e0	-1.3492088
16	0xbff1fd10	-1.8905354
17	0xbeeb2633	-0.4592758
18	0x3f3045fc	0.6885679
19	0x3e14f13c	0.14545149
20	0xbf6ed870	-0.9329901
21	0x3cf2679f	0.029590426
22	0x3e973a3d	0.2953662
23	0xbfc12d03	-1.5091861
24	0xbf501ec9	-0.81296974
25	0xbd6b82f9	-0.057497952
26	0xbff0fa7b	-1.882644
27	0xbf9eeec0	-1.2416611
28	0xbebae212	-0.36500603
29	0xbefe6f13	-0.49694118
30	0x3de701c7	0.11279636
31	0x3e9c74dd	0.3055791

conv3_bn.running_var f4 [32]
0	0x3e51897f	0.20462607
1	0x3e3a8fb4	0.18218881
2	0x3e9efe96	0.3105361
3	0x3e820d8e	0.25400966
4	0x3f33db9e	0.70256984
5	0x3e7699d1	0.24082114
6	0x3ea3c82f	0.31988665
7	0x3ef2474c	0.4732002
8	0x3ec22d60	0.37925243
9	0x3ebd4e49	0.3697379
10	0x3ed31546	0.41227168
11	0x3ec1f152	0.37879425
12	0x3f04ba30	0.518466
13	0x3ed41a71	0.41426423
14	0x3e8aae5d	0.27086154
15	0x3ebaff8d	0.36523095
16	0x3ee4658d	0.44608727
17	0x3eaf9002	0.34289557
18	0x3e89fffd	0.26953116
19	0x3ec4dd19	0.38449934
20	0x3ee8c895	0.45465532
21	0x3e9c62c0	0.3054409
22	0x3ec0e718	0.3767631
23	0x3e9becff	0.3045425
24	0x3f12195b	0.5706994
25	0x3ea5fb4a	0.3241828
26	0x3ece614d	0.4030861
27	0x3e954d17	0.29160377
28	0x3ee50a66	0.44734496
29	0x3e7b8980	0.24564171
30	0x3e78532a	0.24250475
31	0x3ea06eb3	0.31334457

fc1.weight f4 [64, 128]
0	0xbde8ad2c	-0.11361155
1	0x3d2b11c8	0.041765004
2	0xbe8f0d6e	-0.27939934
3	0xbeb463b5	-0.3523232
4	0xbe09c21c	-0.13452953
5	0xbdd1ee59	-0.10250539
6	0xbd75a7d5	-0.05997451
7	0xbbff1545	-0.007784518
8	0x3f0cad34	0.54951787
9	0x3ebcc163	0.36866292
10	0x3d84836e	0.06470381
11	0xbd48a3f2	-0.048984475
12	0x3d964c08	0.073387206
13	0x3df414a7	0.119180016
14	0x3c2fd7d3	0.010732609
15	0x3d9d3096	0.07675283
16	0xbda270f6	-0.07931702
17	0xbd5af688	-0.053457767
18	0xbe84653b	-0.25858483
19	0xbe78e3f1	-0.24305703
20	0xbc8ef48b	-0.017450592
21	0xbe05aead	-0.13054915
22	0x3e438d9a	0.19096985
23	0x3e0d76e5	0.13814886
24	0x3f03e0f8	0.5151515
25	0x3ec3edd6	0.38267392
26	0x3ec93066	0.39294738
27	0x3e9add68	0.30247045
28	0x3def907b	0.11697479
29	0x3e002944	0.12515742
30	0xbd64b191	-0.055833403
31	0xbe8b7611	-0.27238515
32	0x3c5d32ee	0.013500912
33	0x3d3b9943	0.04580046
34	0xbdffc8c0	-0.12489462
35	0x3c8e27f5	0.017353037
36	0xbcf599c7	-0.029980553
37	0xbdc69c5b	-0.09697791
38	0x3e8bb36e	0.2728533
39	0x3e238a74	0.15970784
40	0xbcc8eb17	-0.024526162
41	0x3d6c0f4e	0.057631783
42	0x3c19f07c	0.009395715
43	0xbdf88365	-0.121344365
44	0x3e0387be	0.1284475
45	0x39c571ec	0.00037659646
46	0x3de42119	0.111391254
47	0x3d53ef97	0.051742163
48	0x3e61da9a	0.22056046
49	0x3e020c23	0.12699942
50	0xbed26de9	-0.4109948
51	0xbe83f10f	-0.2576985
52	0x3d002e3b	0.03129409
53	0x3e419f00	0.1890831
54	0x3e69772f	0.22799371
55	0x3e85f8cb	0.26166376
56	0xbe1b57ac	-0.15170163
57	0xbdb2c40b	-0.087287985
58	0x3d994ba1	0.07485128
59	0x3d9d5ff4	0.07684317
60	0xbe090159	-0.1337942
61	0x3cb506d5	0.022097984
62	0x3e31b71c	0.17355007
63	0x3e4ce6cc	0.20009917
64	0x3e06c1fc	0.13159937
65	0x3d09cbdf	0.033641692
66	0xbd8a037b	-0.06738945
67	0xbdcdbe79	-0.100460954
68	0x3d4ee087	0.050507095
69	0x3d0ff89e	0.03514921
70	0x3ebbb6d1	0.36662915
71	0x3ea261a6	0.31715125
72	0xbe822c0a	-0.25424224
73	0xbe84d9d5	-0.25947443
74	0x3d0bcd25	0.034131188
75	0x3c48e7ff	0.012262343
76	0xbf01ac86	-0.50653875
77	0xbeae8905	-0.34088913
78	0xbdb00dfe	-0.08596419
79	0xbe5846cc	-0.21120757
80	0xbe27bd52	-0.16380814
81	0xbea392a5	-0.31947818
82	0xbe8dcb73	-0.27694282
83	0xbe9143b0	-0.28371954
84	0xbe554bda	-0.20829716
85	0xbe835e7d	-0.25658026
86	0xbe75c2ef	-0.24000143
87	0xbee96de4	-0.45591652
88	0xbeaba19b	-0.33521733
89	0xbe9b4ce1	-0.3033209
90	0x3e087bfc	0.13328546
91	0x3e006109	0.12537016
92	0xbe37a52d	-0.17934103
93	0xbdfc9a5e	-0.12334131
94	0x3e275953	0.16342668
95	0x3df05f29	0.117369
96	0x3952f587	0.00020118627
97	0xbe15cd5e	-0.14629123
98	0x3d742b89	0.05961183
99	0xbcac7ad3	-0.02105466
100	0x3d9e0847	0.077164225
101	0x3d67855c	0.056523666
102	0x3dbcd860	0.09220958
103	0x3df86331	0.12128294
104	0x3dda9b57	0.1067416
105	0x3d085057	0.033279743
106	0x3e7e480a	0.24832168
107	0x3e1887f2	0.14895609
108	0x3ea7e9d5	0.32795587
109	0x3e665d5d	0.22496553
110	0x3e19cb40	0.1501894
111	0x3d2b9d4c	0.041898057
112	0x3e320962	0.17386392
113	0x3dc19aa0	0.094533205
114	0x3e113d6f	0.14183591
115	0x3dc16d15	0.09444634
116	0xbea8cf26	-0.32970542
117	0xbe74e01c	-0.23913616
118	0xbe5b8015	-0.21435578
119	0xbe94d2e2	-0.2906714
120	0x3d8e62c8	0.06952435
121	0xbe046059	-0.12927379
122	0x3d864ee4	0.06558016
123	0x3e051b14	0.1299861
124	0xbaee741b	-0.0018192561
125	0x3d8e08c8	0.06935269
126	0x3dc0da16	0.094165966
127	0xbdc9dccf	-0.09856569
128	0x3e129d88	0.14317906
129	0xbc953727	-0.018214775
130	0x3e98c02a	0.2983411
131	0x3e4255ae	0.18977997
132	0xbd6e1b0d	-0.058131266
133	0xbdf1d4be	-0.118081555
134	0x3bbeb490	0.0058198646
135	0x3d14070f	0.036139544
136	0x3e230fea	0.1592404
137	0xbde128e5	-0.10994128
138	0x3d537cba	0.05163262
139	0x3d8132f0	0.06308544
140	0xbdd592d3	-0.10428395
141	0x3d782340	0.060580492
142	0xbd86e949	-0.06587464
143	0xbc05bf47	-0.00816328
144	0x3d0e2d35	0.03471108
145	0xbdb04c7e	-0.0860834
146	0x3c1808f7	0.009279481
147	0x3d3e0b1f	0.046397325
148	0xbcde06e4	-0.027102895
149	0x3d1660c5	0.03671338
150	0x3e3b4bf9	0.182907
151	0x3e1fac9d	0.1559319
152	0x3e28df60	0.16491461
153	0x3daeb3d3	0.085303925
154	0x3b399e1f	0.0028323007
155	0x3d53aafb	0.05167673
156	0xbdb4ab13	-0.08821692
157	0x3dca21c2	0.0986972
158	0xbcf1a67d	-0.029498333
159	0xbd926f29	-0.07150108
160	0x3dfd6b3b	0.12373968
161	0x3d9c7eb8	0.07641357
162	0x3dff4536	0.12464373
163	0xbbf7f6a4	-0.0075672437
164	0x3d7cbf78	0.061706036
165	0xbe3d30d1	-0.18475653
166	0x3cdd0829	0.02698143
167	0xbd1c4b5e	-0.038157813
168	0xbdba65b0	-0.091014266
169	0x3e16c365	0.14722975
170	0x3cd668fb	0.026173105
171	0x3e91df6e	0.28490776
172	0x3d9763a0	0.07392049
173	0x3d42d82d	0.047569443
174	0xbe8ffb63	-0.2812148
175	0x3d51ca72	0.051218458
176	0x3eca4eda	0.39513284
177	0x3eaca942	0.33722883
178	0x3f05681a	0.5211197
179	0x3ec252cd	0.37953797
180	0xbe0a7c00	-0.13523865
181	0x3e56507c	0.2092914
182	0xbe169951	-0.14706923
183	0x3cb273fd	0.021783823
184	0x3e77eb42	0.24210837
185	0x3dc01b56	0.09380214
186	0x3e5b78c3	0.21432786
187	0x3e906ce2	0.2820807
188	0x3cfa6b82	0.030568842
189	0xbd8105df	-0.06299948
190	0x3eb01b7c	0.3439597
191	0x3df54a3e	0.11977051
192	0x3ea03f3e	0.3129825
193	0xbcd4a761	-0.025958719
194	0xbccd81e3	-0.025086349
195	0xbda4a815	-0.080398716
196	0x3d8ad213	0.0677835
197	0x3e689004	0.22711188
198	0x3e8cce32	0.27501065
199	0x3e69cde2	0.22832444
200	0xbdf326c6	-0.1187263
201	0xbd88ad1d	-0.06673644
202	0x3d4e55c9	0.05037478
203	0xbe5e3d0f	-0.2170298
204	0xbe6351f0	-0.22199225
205	0xbc98b01c	-0.018638663
206	0xbe137f88	-0.14404118
207	0xbe60874c	-0.21926612
208	0xbd8bedda	-0.06832476
209	0xbe7ae5c7	-0.24501716
210	0x3dccfb2a	0.10008843
211	0x3d429ee0	0.047514796
212	0x3d581c15	0.052761156
213	0xbd3f1b5b	-0.046656948
214	0x3e7c8e29	0.24663605
215	0x3e66baa0	0.2253213
216	0x3e05e501	0.1307564
217	0x3d74622d	0.05966394
218	0x3da49881	0.080369
219	0xbcd33a44	-0.02578462
220	0xbe760aaf	-0.24027513
221	0xbd92081e	-0.071304545
222	0xbe9a3b96	-0.30123585
223	0xbe82adc2	-0.25523192
224	0x3c7dbe49	0.015487262
225	0xbd0af03c	-0.03392051
226	0xbb92b3cb	-0.0044769994
227	0x3dd975e8	0.10618192
228	0xbdd7d269	-0.105381794
229	0xbce5e907	-0.028065218
230	0xbdf53c90	-0.11974442
231	0xbe076449	-0.1322185
232	0x3c91692c	0.017750345
233	0x3d4a9c8c	0.0494657
234	0xbd22bb2d	-0.039729286
235	0x3df15bc4	0.11785081
236	0xbe2da2e7	-0.16956674
237	0xbe7f5c23	-0.24937491
238	0xbd96a3f6	-0.07355492
239	0xbed23c46	-0.4106161
240	0x3eb76069	0.35815743
241	0x3e2fa094	0.171511
242	0x3e3f63d7	0.1869043
243	0x3d1a9a24	0.037744656
244	0xbdb2c82b	-0.08729585
245	0xbca428ee	-0.020039048
246	0x3d8c97bf	0.06864881
247	0x3e3c5cb0	0.18394732
248	0x3e1d44ab	0.15358226
249	0x3d0d79b4	0.034539893
250	0x3cda3a0f	0.026639013
251	0xbe8a5a4a	-0.2702201
252	0x3e98b010	0.29821825
253	0x3ef1931f	0.47182557
254	0x3ea10d68	0.3145554
255	0x3ec36078	0.38159537

fc1.bias f4 [64]
0	0x3e8682d6	0.26271695
1	0xbd13ff14	-0.036131933
2	0x3e5d775f	0.21627568
3	0x3d53bbe9	0.051692877
4	0xbe6f1d5c	-0.23351043
5	0x3e2400d8	0.16015947
6	0x3e3e6b40	0.185956
7	0xbe4b91a5	-0.19879778
8	0x3d109a2e	0.035303287
9	0xbceb087e	-0.028690573
10	0xbd2405a2	-0.040044434
11	0x3caffd61	0.021483125
12	0xbdaff32c	-0.08591303
13	0x3e1bb897	0.15207134
14	0x3e9f1f53	0.31078586
15	0xbd464c7f	-0.048412796
16	0xbd4515a7	-0.048116352
17	0x3e07b92f	0.13254236
18	0x3f0a068d	0.53916246
19	0x38cc0856	9.729031e-05
20	0x3dfaa10e	0.1223775
21	0x3e73c5c0	0.23805904
22	0x3ddc765c	0.10764763
23	0x3e08e0f6	0.13367066
24	0x3e9b3ac4	0.30318272
25	0x3bc51b44	0.006015213
26	0x3e8ac641	0.2710438
27	0x3eb92ac0	0.36165428
28	0xbdb9e4fd	-0.09076879
29	0x3eb0037f	0.34377667
30	0xbec1fd32	-0.37888485
31	0x3ecda9ec	0.40168703
32	0x3e4f62de	0.20252559
33	0x3d235595	0.03987654
34	0xbdbcf55f	-0.09226488
35	0x3d3dc1f9	0.046327565
36	0x3e03a923	0.1285749
37	0x3dd0e714	0.10200325
38	0xbd0c7ca2	-0.034298547
39	0x3ea44dd2	0.32090622
40	0xbe44c973	-0.19217472
41	0x3e6bf87c	0.23044008
42	0xbc58aafc	-0.01322436
43	0xbd73ddeb	-0.05953781
44	0x3e2ab7e3	0.1667171
45	0x3e12656b	0.142965
46	0x3e98890d	0.2979206
47	0x3e1ce4ac	0.15321606
48	0xbe74579f	-0.2386155
49	0x3e3d2a72	0.18473223
50	0xbe679513	-0.22615461
51	0xbdb4d6ea	-0.08830054
52	0xbe16220c	-0.14661425
53	0x3e6bd170	0.23029113
54	0x3e8e3cd6	0.2778079
55	0xbd813008	-0.06307989
56	0x3d7d19e9	0.061792288
57	0x3c8cacde	0.017172273
58	0x3e3243c6	0.17408666
59	0xbc933b56	-0.01797263
60	0x3e22afbe	0.15887353
61	0x3b58ed96	0.0033100597
62	0x3d378a00	0.04480934
63	0x3e1e5a3b	0.15464108

fc2.weight f4 [10, 64]
0	0xbada4d28	-0.0016655074
1	0x3e7c9a0b	0.24668138
2	0xbd08b039	-0.033371184
3	0xbe7756f3	-0.24154262
4	0x3d02fe33	0.031980705
5	0xbcf124b4	-0.029436447
6	0x3e6b74cd	0.22993775
7	0xbea3c5d2	-0.31986862
8	0x3ea0f0d4	0.31433737
9	0x3e32bcf9	0.174549
10	0x3e39389a	0.18087998
11	0x3b65ebd3	0.003508319
12	0xbd78997e	-0.060693257
13	0x3e7c5ea6	0.2464548
14	0x3e948db1	0.29014352
15	0xbedfec15	-0.43734804
16	0xbed0de5e	-0.40794653
17	0xbefab90d	-0.48969308
18	0x3d06c886	0.032906078
19	0xbd199fed	-0.037506033
20	0xbdc73317	-0.097265415
21	0xbdc0a976	-0.09407322
22	0x3d6c0172	0.057618566
23	0x3efe73d4	0.49697745
24	0xbdea0f13	-0.114286564
25	0x3d9e7299	0.077367015
26	0x3eac7bc6	0.33688182
27	0xbd8977b4	-0.06712285
28	0xbf00fc9c	-0.5038545
29	0xbe75b17c	-0.23993486
30	0xbf093209	-0.5359197
31	0x3d34ab8c	0.044108912
32	0xbe7efbc7	-0.24900733
33	0x3d7705b7	0.060308184
34	0x3dcf2581	0.10114575
35	0x3dd10dd8	0.102077186
36	0xbd2f7d0e	-0.04284387
37	0x3e4facee	0.20280811
38	0xbe6a92fe	-0.22907636
39	0xbe8b0e1b	-0.271592
40	0x3e987244	0.29774678
41	0x3d970f43	0.07375958
42	0x3e831415	0.2560126
43	0x3da1c39e	0.07898639
44	0xbe76697b	-0.24063675
45	0x3e1d03fd	0.15333553
46	0xbdcbeb24	-0.09956959
47	0x3e3ad72b	0.18246143
48	0xbed8cd1a	-0.4234398
49	0x3ea743b8	0.32668853
50	0xbf017cac	-0.5058086
51	0x3eba2d22	0.3636256
52	0x3e4e345f	0.20137165
53	0xbf1c87d6	-0.6114477
54	0x3ecf35b0	0.40470648
55	0xbe8e677a	-0.2781332
56	0xbeda24a9	-0.42606094
57	0x3e23132a	0.1592528
58	0xbeb4f5a0	-0.35343647
59	0x3d8b25c5	0.06794313
60	0x3ea8d64f	0.32976004
61	0x3eaaa373	0.33327827
62	0xbf192844	-0.59827065
63	0xbd937d7e	-0.0720167
64	0x3ced9bd0	0.029004961
65	0x3daa32c6	0.083104655
66	0x3e92cfca	0.28674155
67	0x3c6170da	0.013759816
68	0x3e494d7f	0.19658469
69	0xbeac21ec	-0.3361963
70	0x3e2bc4a7	0.16774236
71	0xbd4b297a	-0.049600102
72	0xbf05963f	-0.5218238
73	0x3eae453c	0.34037197
74	0xbd90c3df	-0.070686094
75	0x3d58fe04	0.052976623
76	0x3da8ed12	0.082483426
77	0x3ceef0e8	0.029167607
78	0xbee5853d	-0.44828215
79	0xbef2c90c	-0.47419012
80	0x3e74402b	0.23852603
81	0x3ea1fe02	0.31639105
82	0x3dbd3575	0.09238712
83	0x3f73caa2	0.9523107
84	0x3eec077a	0.46099454
85	0x3e8487b2	0.25884777
86	0xbf039996	-0.5140623
87	0xbef55b84	-0.47921383
88	0xbf0cfd11	-0.5507365
89	0x3ce27e8a	0.02764823
90	0xbec6a31d	-0.3879632
91	0xbe89023e	-0.26759523
92	0x3e7232e4	0.23652226
93	0xbe6651a6	-0.22492084
94	0xbc3b1005	-0.011417394
95	0xbedb474b	-0.4282783
96	0xbec3aaf5	-0.38216367
97	0x3ee0551b	0.4381493
98	0x3dd152b9	0.10220856
99	0xbf219806	-0.63122594
100	0x3ea88c74	0.32919657
101	0xbacd24bd	-0.0015651208
102	0x3d8d054c	0.06885776
103	0x3dcd360a	0.10020073
104	0xbed6acac	-0.41928613
105	0x3ea5aad2	0.32356888
106	0xbcde4517	-0.027132554
107	0xbee5421b	-0.44776997
108	0x3e21d780	0.15804863
109	0x3db63de4	0.088985234
110	0xbf2aa41a	-0.6665665
111	0x3e5a5ddf	0.21324871
112	0x3dc8e1b7	0.09808677
113	0xbe9969f7	-0.29963657
114	0xbf08b890	-0.5340662
115	0xbeaf7b6f	-0.3427386
116	0x3d80890a	0.06276138
117	0xbe9b2716	-0.30303258
118	0x3e5c32ee	0.21503803
119	0xbed009d4	-0.40632498
120	0xbdb6174c	-0.08891162
121	0x3de1fdef	0.11034762
122	0xbe584d04	-0.21123129
123	0xbd8aac20	-0.067711115
124	0xbf0cdea3	-0.55027217
125	0x3ef15992	0.4713865
126	0xbf1534f2	-0.58283913
127	0x3ef203de	0.47268575
128	0xbf00865f	-0.50205034
129	0x3dd44b88	0.10365969
130	0xbe69f7dd	-0.22848459
131	0x3e1a33be	0.150588
132	0x3e4ba5ac	0.19887418
133	0xbd3854ae	-0.04500263
134	0xbe343b8d	-0.17600842
135	0xbe70c0cd	-0.23511048
136	0x3eb58a87	0.3545725
137	0x3e024f85	0.12725647
138	0x3e66eebc	0.22552007
139	0xbd9e44e2	-0.07727982
140	0xbb35fd30	-0.002776932
141	0x3e2d099c	0.16898197
142	0xbddb7ca3	-0.10717132
143	0x3e0031bf	0.12518977
144	0xbd29602f	-0.041351493
145	0x3e8ac0ae	0.27100128
146	0xbef3e1dc	-0.47633255
147	0x3dbbfc2d	0.09178958
148	0xbecc7860	-0.3993559
149	0xbeb6bbfe	-0.35690302
150	0x3e39fc57	0.18162666
151	0x3ab86670	0.0014068615
152	0xbe1fe593	-0.1561492
153	0xbcbe1cbc	-0.023207061
154	0xbf009a81	-0.50235754
155	0x3c25882b	0.010103266
156	0xbc84dddd	-0.016219074
157	0xbf010d11	-0.5041056
158	0x3ea74d42	0.3267613
159	0xbe8ba00f	-0.27270553
160	0xbe5e8df2	-0.21733835
161	0x3d61d09b	0.055130582
162	0xbdaf1649	-0.085491724
163	0x3e429f73	0.19006138
164	0xbeebe28a	-0.46071273
165	0xbb9ceca5	-0.0047889524
166	0x3d897286	0.06711297
167	0xbe93bb12	-0.2885366
168	0x3f0e05cd	0.554776
169	0xbf025c6d	-0.5092228
170	0x3e43a2e7	0.19105111
171	0xbd941cb3	-0.072320364
172	0xbf01ced9	-0.5070625
173	0xbd609a26	-0.054834507
174	0x3dabea9c	0.083943576
175	0xbcf2024b	-0.029542109
176	0x3e37e1e5	0.17957266
177	0x3e05d388	0.13068974
178	0x3eb799c8	0.35859513
179	0x3e7e7a1a	0.24851266
180	0x3e053548	0.13008606
181	0x3e6af55c	0.2294516
182	0xbe2a5cd7	-0.16636978
183	0x3e31cc81	0.17363168
184	0x3e4abb74	0.1979807
185	0x3de4ac78	0.11165708
186	0xbeaf1678	-0.3419683
187	0xbcaff6a5	-0.021479914
188	0x3e421535	0.18953402
189	0x3f0a49f1	0.54019076
190	0xbeb77a25	-0.35835376
191	0xbdf6dfeb	-0.12054428
192	0x3d2b8f99	0.041884992
193	0xbdad9f09	-0.08477599
194	0xbedbff0c	-0.42968023
195	0x3d373278	0.044725865
196	0xbeef90c1	-0.46790126
197	0x3ed20e93	0.41026744
198	0xbdba3c25	-0.09093503
199	0x3c72882c	0.014802974
200	0x3df90215	0.121586
201	0xbdb793fe	-0.08963774
202	0xbdea17b9	-0.11430306
203	0x3ce1eebd	0.02757966
204	0xbdac251d	-0.08405516
205	0x3e8bfa0e	0.27339214
206	0x3e4e17e7	0.20126306
207	0x3da05c1e	0.0783007
208	0xbeaae45d	-0.33377352
209	0xbce12bee	-0.027486768
210	0x3db494bf	0.088174336
211	0xbbad6a20	-0.005292192
212	0xbe604066	-0.21899566
213	0xbe5c0770	-0.21487212
214	0x3cd3933d	0.025827045
215	0xbec8b336	-0.39199227
216	0x3ee46886	0.44610995
217	0xbeeaaefb	-0.45836625
218	0xbe742a35	-0.23844226
219	0xbe4c1e1d	-0.19933362
220	0xbdcf4fa8	-0.10122615
221	0x3caf774f	0.021419195
222	0x3d8918f8	0.066942155
223	0x3e0f748d	0.14009304
224	0x3ecbab49	0.39779118
225	0xbf186cff	-0.59541315
226	0x3bd2bf26	0.006431478
227	0xbda7e25a	-0.0819747
228	0x3e6c9ac2	0.2310591
229	0xbe2f8a5b	-0.17142622
230	0xbd9e387f	-0.077256195
231	0xbdefc6a2	-0.11707808
232	0xbe9bcb40	-0.30428505
233	0xbe5f6eee	-0.2181966
234	0xbed4aca9	-0.4153798
235	0xbdec381a	-0.11534138
236	0x3e96066c	0.29301775
237	0xbd92a99c	-0.07161257
238	0xbd255b12	-0.040370055
239	0x3c85b329	0.016320782
240	0x3c379156	0.011204084
241	0xbdc6e5a7	-0.097117715
242	0xbd89007c	-0.066895455
243	0x3c3b152c	0.011418622
244	0xbe2875f8	-0.16451252
245	0xbe72c253	-0.23706941
246	0xbe98bedb	-0.2983311
247	0x3dee208e	0.11627303
248	0x3e5b7491	0.21431185
249	0x3d133127	0.035935547
250	0x3ee04adb	0.4380711
251	0x3d19d7ab	0.037559193
252	0x3e74d6ce	0.23910066
253	0xbdd038a8	-0.10167056
254	0xbe23d306	-0.15998468
255	0x3e112e36	0.14177784

fc2.bias f4 [10]
0	0x3e6f5d6e	0.23375484
1	0xbd8659ae	-0.06560074
2	0xbee6117a	-0.4493521
3	0x3e4c25a7	0.19936238
4	0xbdcc1bec	-0.09966263
5	0x3e0c7f18	0.13720357
6	0xbd87d1a8	-0.06631786
7	0xbe47c9ff	-0.19510649
8	0xbe1c0b78	-0.1523875
9	0x3e85a86f	0.26105067
