exp_cifar/models/cifar_tiny_resnet18_cifar10_kt_cifar10.model (torch_old, 63528 bytes, 22 tensors)

conv1.weight f4 [8, 3, 3, 3]
0	0x3d73b9c7	0.059503343
1	0x3e098006	0.13427743
2	0xbd6a57cc	-0.057212636
3	0xbe6a4d5a	-0.2288107
4	0xbe460b51	-0.19340254
5	0xbe5117c3	-0.2041922
6	0x3ced899b	0.02899628
7	0x3e946d86	0.2898981
8	0x3e40f15a	0.18842068
9	0xba6fc2a0	-0.0009146128
10	0x3e7b6159	0.24548854
11	0x3bef9353	0.0073112636
12	0xbe81c368	-0.25344396
13	0xbe06a04e	-0.13147089
14	0xbe878f15	-0.2647635
15	0x3e61857e	0.2202358
16	0x3dde67d7	0.1085965
17	0x3d6f6a19	0.058450792
18	0x3e37f90c	0.17966098
19	0x3c4735cd	0.012158823
20	0x3dce59d4	0.10075727
21	0xbe1f093a	-0.15530863
22	0xbe258480	-0.16163826
23	0xbd8aac7e	-0.067711815
24	0x3cab5555	0.020914713
25	0x3bcf1fbe	0.0063209226
26	0x3d90524e	0.070469484
27	0xbe0c0db9	-0.1367711
28	0x3e8d176b	0.2755693
29	0x3c002339	0.007820898
30	0xbdab0a75	-0.08351604
31	0xbecd01a3	-0.4004031
32	0x3e608d67	0.2192894
33	0x3e471aa9	0.19443764
34	0xbd11c8c1	-0.035591844
35	0xbd951fc2	-0.07281448
36	0xbe0092b3	-0.12555961
37	0x3dd5a403	0.104316734
38	0xbd856220	-0.065128565
39	0x3b056b7e	0.002035826
40	0xbe89d2ef	-0.26918742
41	0x3e0e8725	0.13918741
42	0x3e650509	0.22365202
43	0x3cd78401	0.026308062
44	0xbdc66ff0	-0.09689319
45	0xbe32f1cd	-0.17475052
46	0x3e207d88	0.15672886
47	0x3e1fe913	0.15616255
48	0x3d613256	0.054979645
49	0xbec3e3cc	-0.38259733
50	0x3e5fb4c1	0.21846296
51	0x3e41050d	0.18849583
52	0xbdc7eff2	-0.09762563
53	0xbe31c8c4	-0.17361742
54	0xbe473649	-0.19454302
55	0x3e52c65e	0.20583484
56	0x3df16f98	0.11788863
57	0x3e0a9c91	0.13536288
58	0x3d8f002c	0.06982455
59	0x3d4bf5a3	0.049794804
60	0xbb285f5b	-0.0025691602
61	0xbc36b5ef	-0.011151775
62	0x3e243e1d	0.1603932
63	0xbe61d35c	-0.22053283
64	0x3db6317f	0.088961594
65	0xbdfd4ceb	-0.123681866
66	0xbd734972	-0.059396215
67	0xbded0755	-0.11573664
68	0xbb247eea	-0.002510006
69	0x3d66d8f6	0.056359254
70	0xbc1d7384	-0.009610061
71	0xbe688add	-0.22709222
72	0xbdd4ec1f	-0.10396599
73	0x3f1634b9	0.586742
74	0x3e8a1020	0.26965427
75	0x3ea1a685	0.31572357
76	0x3e7c019b	0.24609987
77	0x3ead95c7	0.33903334
78	0x3e6e662f	0.23281167
79	0x3dc0d653	0.09415879
80	0xbd9f95e5	-0.07792262
81	0xbd36afaf	-0.04460114
82	0x3b2ec2ca	0.0026666396
83	0x3daa1ea5	0.08306626
84	0x3c9f24a2	0.019426648
85	0x3e0735a8	0.13204062
86	0xbd5a86d7	-0.05335125
87	0x3c965a18	0.018353507
88	0x3dd4fed5	0.10400168
89	0x3e198e6b	0.14995734
90	0x3e6fdc34	0.23423845
91	0x3d1f0ffa	0.038833596
92	0x3cdd2ce6	0.026998948
93	0x3d954424	0.072883874
94	0x3e9c04f7	0.30472538
95	0x3e2a90db	0.1665682
96	0x3e6efc20	0.23338366
97	0xbd389169	-0.04506055
98	0x3e68d80b	0.22738664
99	0xbe845a65	-0.25850216
100	0xbd2f5eb5	-0.04281493
101	0xbe12de78	-0.14342678
102	0xbe85274a	-0.26006538
103	0xba2e834a	-0.0006657137
104	0xbea9231b	-0.33034596
105	0xbe2ba153	-0.16760759
106	0xbe094711	-0.13406016
107	0xbe37ec97	-0.17961346
108	0xbcc52b11	-0.024068387
109	0x3e6ee17a	0.233282
110	0xbe474cc1	-0.19462873
111	0x3e4efe20	0.20214128
112	0xbe96793b	-0.29389367
113	0x3cc73d58	0.024321243
114	0xbd00452d	-0.03131597
115	0xbd682a02	-0.056680687
116	0x3d8b0887	0.06788736
117	0xbe0b5920	-0.13608217
118	0x3e906e71	0.2820926
119	0xbdfffee8	-0.124997914
120	0x3e63b981	0.22238733
121	0xbe2138ea	-0.15744367
122	0x3a5bcce8	0.00083847204
123	0xbdd17dba	-0.102290586
124	0xbdda6ce2	-0.10665299
125	0x3e6f553f	0.23372363
126	0xbdab0fff	-0.083526604
127	0x3e72a566	0.23695907
128	0xbe55042b	-0.20802371
129	0x3df47dfa	0.119380906
130	0xbe6bf544	-0.2304278
131	0x3c8fb6b3	0.017543172
132	0xbb5de499	-0.0033858179
133	0xbe21621f	-0.15760086
134	0x3e126601	0.14296724
135	0xbddde2d8	-0.10834283
136	0x3ce57bec	0.028013192
137	0xbcfa16b3	-0.030528402
138	0x3e2f53c7	0.17121802
139	0x3e3cc35f	0.18433903
140	0x3e90ef6a	0.28307658
141	0xbd6bcb3d	-0.05756687
142	0x3ee6d7f7	0.45086643
143	0x3e1623a6	0.14662036
144	0xbd127db6	-0.03576442
145	0xbd9145e2	-0.07093407
146	0xbda2be56	-0.0794646
147	0xbe40b94c	-0.18820685
148	0xbe8a4977	-0.27009174
149	0xbe1700af	-0.14746355
150	0xbe23ae8c	-0.15984553
151	0xbea8bb39	-0.3295534
152	0xbdd694bd	-0.10477588
153	0x3de1e455	0.11029879
154	0x3da4f06e	0.08053671
155	0x3db4d9cd	0.08830605
156	0x3d8fe768	0.07026559
157	0x3d42863b	0.047491293
158	0xbe08d75a	-0.133634
159	0x3e4bcd23	0.19902472
160	0xbe497b8f	-0.1967604
161	0xbd9f1e5d	-0.07769463
162	0xbd668f87	-0.056289222
163	0x3e4353e9	0.19074978
164	0xbddfc2d9	-0.10925836
165	0xbda8ddd8	-0.08245438
166	0x3e21d782	0.15804866
167	0xbded57f2	-0.1158904
168	0xbe0e5b5f	-0.13902043
169	0x3e5ae48e	0.21376249
170	0xbd8f0df5	-0.06985084
171	0xbdc5c34e	-0.09656392
172	0x3e1f1603	0.1553574
173	0xbd8544bf	-0.06507253
174	0xbe4073b2	-0.18794134
175	0x3e9eebe1	0.31039336
176	0xbde4a5a2	-0.111644045
177	0xbdc38da5	-0.09548501
178	0x3e8a6799	0.27032164
179	0xbe26640e	-0.16249105
180	0xbe00d9cd	-0.12583084
181	0x3e28e5b2	0.16493872
182	0xbd615fef	-0.05502313
183	0xbe0991a2	-0.13434461
184	0x3e9b9684	0.30388272
185	0xbe268ed2	-0.16265419
186	0xbdbfdc5c	-0.09368202
187	0x3e435dec	0.19078797
188	0xbdc6386a	-0.09678729
189	0x3e7ff996	0.24997553
190	0xbe36f59b	-0.17867129
191	0xbe69341f	-0.22773789
192	0xbd8b4791	-0.068007596
193	0x3ebcda99	0.36885527
194	0x3e2398f3	0.15976314
195	0xbe3cf40d	-0.18452473
196	0xbd129593	-0.035787176
197	0xbc382b70	-0.011240825
198	0xbda5089e	-0.08058284
199	0x3d9789f3	0.073993586
200	0x3cc1fa91	0.02367905
201	0x3d0ee71e	0.03488838
202	0x3ee12f90	0.439816
203	0x3d004228	0.03131309
204	0xbe21c5f6	-0.15798172
205	0xbeb59ef9	-0.3547285
206	0xbe0b2324	-0.13587624
207	0x3e30dccf	0.17271732
208	0xbe3048a7	-0.17215215
209	0x3cd98153	0.026550924
210	0xbc9ca8ab	-0.019123396
211	0x3de83509	0.11338241
212	0x3db7f2fb	0.08981892
213	0x3c27eaf5	0.010248889
214	0xbdaa24fb	-0.08307835
215	0xbd8661f7	-0.06561654

conv1.bias f4 [8]
0	0x3dd6f78b	0.10496434
1	0x3e40931a	0.18806115
2	0x3ebf22d3	0.37331256
3	0x3e110f29	0.1416594
4	0xbceff20d	-0.029290223
5	0x3d297e3f	0.041380163
6	0x3e1bf88d	0.15231533
7	0x3e5c50d0	0.21515203

conv1_bn.weight f4 [8]
0	0x3edf481b	0.436097
1	0x3ef7be61	0.48387435
2	0x3f2c7fa1	0.67382246
3	0x3ee2c6ca	0.4429229
4	0x3ef0d42e	0.4703688
5	0x3f0a60d8	0.5405402
6	0x3f31307c	0.69214606
7	0x3ec955ec	0.39323366

conv1_bn.bias f4 [8]
0	0xbc7237fd	-0.014783856
1	0xbd8bbe4e	-0.06823407
2	0x3f49e4e7	0.788649
3	0x3ed9d91b	0.4254845
4	0x3e9d9ac4	0.3078214
5	0x3eb91254	0.36146796
6	0x3bc5e917	0.0060397494
7	0xbc9d9583	-0.019236332

conv1_bn.running_mean f4 [8]
0	0x3dbfc654	0.09364
1	0x3e56d980	0.20981407
2	0x3d9278a7	0.07151919
3	0x3d94f2ed	0.07272897
4	0xbc4cc886	-0.01249898
5	0x3db383d9	0.08765382
6	0x3e27d7a2	0.16390851
7	0x3e6b4ba4	0.22978073

conv1_bn.running_var f4 [8]
0	0x3e995324	0.29946244
1	0x3e293ed5	0.16527875
2	0x40490f24	3.141549
3	0x3ef442a2	0.47707087
4	0x3d976fcb	0.0739437
5	0x3e5d8a87	0.21634875
6	0x3eb30518	0.34964824
7	0x3e8b3460	0.27188396

conv2.weight f4 [16, 8, 3, 3]
0	0x3d69a67a	0.05704353
1	0x3d62c110	0.0553599
2	0x3ccaa98d	0.024739051
3	0xbcbf8dc3	-0.023383027
4	0xbd5d3534	-0.054005817
5	0xbc5072e7	-0.012722707
6	0xbd369524	-0.044575825
7	0xbcee31a1	-0.0290764
8	0xbe2eb779	-0.17062177
9	0xbd0a0edb	-0.033705574
10	0xbe384a2e	-0.17997047
11	0x3b3e5a40	0.0029045492
12	0x3d079acf	0.03310662
13	0x3a90af3a	0.001103855
14	0xb99f90fc	-0.00030434865
15	0xbb891aa1	-0.0041840826
16	0x3da88b6d	0.08229718
17	0x3c75a2cd	0.014992428
18	0xbd46d62a	-0.048544087
19	0x3e070634	0.1318596
20	0x3e3d21a0	0.18469858
21	0x3e1342a1	0.14380886
22	0x3dcb86b2	0.099378005
23	0x3e12b7a5	0.14327867
24	0x3d1bf853	0.038078617
25	0x3d2cc48d	0.042179633
26	0xbcea951f	-0.02863556
27	0xbeabaf40	-0.33532143
28	0xbf14b064	-0.5808165
29	0xbf07bc25	-0.5302146
30	0xbe891e2c	-0.26780832
31	0xbe97ce56	-0.2964961
32	0xbe537e2c	-0.206536
33	0xbd1bd2e1	-0.038042907
34	0x3e25024c	0.16114157
35	0xbe2f203f	-0.17102145
36	0x3d293455	0.041309673
37	0x3dbc5dd4	0.09197584
38	0x3dc45006	0.09585576
39	0x3d01f566	0.03172817
40	0x3d17cfe1	0.037063483
41	0x3e334f26	0.17510661
42	0x3cf95d26	0.030439924
43	0x3de0e091	0.10980333
44	0x3d924db7	0.07143729
45	0xbe65f4a7	-0.22456609
46	0xbed6026e	-0.4179873
47	0xbd70da22	-0.058801778
48	0xbdf05d07	-0.117364936
49	0xbdb110d3	-0.08645787
50	0x3e6b6662	0.22988275
51	0xbe6b0ca8	-0.22954047
52	0x3e2e62ff	0.17029952
53	0x3d881c66	0.066460416
54	0xbb895c8b	-0.00419194
55	0xbc3bfc35	-0.011473705
56	0x3c56a3c8	0.013100572
57	0xbc075bf1	-0.008261667
58	0xbe0f6bd0	-0.14005971
59	0x3bf80263	0.007568644
60	0xbd94d436	-0.072670385
61	0xbb412a08	-0.0029474515
62	0xbcf0975b	-0.029369047
63	0x3dab8953	0.08375802
64	0xbc0e9dee	-0.008704646
65	0x3def7276	0.116917536
66	0x3e33ac2a	0.17546144
67	0x3d3ed9fb	0.0465946
68	0xbd3df0b1	-0.04637212
69	0x3ddeda27	0.10881453
70	0x3deac91d	0.114641406
71	0x3d171b07	0.03689101
72	0x3e94b9cb	0.29048
73	0x3d5c7f25	0.053832192
74	0x3e056d97	0.13030086
75	0x3eb535d6	0.35392636
76	0x3e32f2e5	0.1747547
77	0x3e53fc6d	0.20701762
78	0x3e241b57	0.16026054
79	0x3e2d3786	0.16915712
80	0x3e359f4b	0.17736547
81	0x3cf5e2ce	0.030015375
82	0xbd9603b8	-0.07324928
83	0xbdb7d115	-0.08975426
84	0xbce50489	-0.027956264
85	0xbe397925	-0.18112619
86	0xbdf38adb	-0.11891719
87	0xbd45530f	-0.048174914
88	0xbe168575	-0.14699347
89	0xbd9ad66f	-0.07560431
90	0xbd5ddd40	-0.05416608
91	0x3da6ff2b	0.08154138
92	0x3e98790c	0.2977985
93	0xbca62225	-0.020279953
94	0xbd9b7b70	-0.07591903
95	0x3e78e40c	0.24305743
96	0x3d82db4d	0.063894846
97	0xbe19d0dd	-0.15021081
98	0xbdb5dd64	-0.088801175
99	0xbc124dd6	-0.00892969
100	0x3e26e7d2	0.1629937
101	0x3e203866	0.15646514
102	0x3e9a0ac5	0.30086342
103	0x3e3ebc74	0.18626577
104	0xbd8be653	-0.0683104
105	0xbdb52a12	-0.08845915
106	0xbec0f017	-0.37683174
107	0xbec3c7e7	-0.3823845
108	0x3d0329ba	0.032022215
109	0xbc9be9f8	-0.019032463
110	0xbd8ba48a	-0.06818493
111	0xbc2183d8	-0.009858094
112	0xbd4fc6b7	-0.05072662
113	0x3d4496d2	0.047995396
114	0x3d58d412	0.05293662
115	0x3da385a0	0.07984471
116	0x3dcdeda4	0.10055092
117	0xbd55763d	-0.052114714
118	0x3df152c4	0.117833644
119	0x3dba0123	0.09082248
120	0xbd0c9081	-0.034317497
121	0x3e34655f	0.17616795
122	0xbcb12eec	-0.02162882
123	0xbe011a2b	-0.12607639
124	0xbe87c812	-0.2651983
125	0xbe5125cd	-0.20424576
126	0x3dc09506	0.09403424
127	0x3e082a94	0.13297492
128	0xbdb40abc	-0.0879111
129	0xbd8f4383	-0.06995299
130	0xbd7abf96	-0.061217867
131	0xbd9783ea	-0.073982075
132	0xbdd2f0ec	-0.102998585
133	0xbd35c0ea	-0.04437343
134	0x3d486423	0.048923623
135	0x3ddf95e2	0.1091726
136	0xbc51e5b4	-0.012811113
137	0x3e6d5da4	0.23180252
138	0x3e63e341	0.22254659
139	0x3eb99768	0.36248326
140	0x3eb2c582	0.34916312
141	0x3e0e9cbd	0.13926978
142	0xbda5913d	-0.08084343
143	0xbe271320	-0.1631589
144	0xbd8ca758	-0.06867856
145	0xbdc0110d	-0.09378252
146	0xbd47ecfa	-0.048809983
147	0xbe34806a	-0.17627111
148	0xbd93e9d4	-0.072223336
149	0xbe32c2a7	-0.17457066
150	0xbe83dbb6	-0.25753564
151	0xbdea3fdc	-0.114379615
152	0xbe469577	-0.19392954
153	0x3db42b37	0.08797305
154	0x3e95f2e0	0.2928686
155	0x3e37ded7	0.179561
156	0xbd4843a3	-0.04889263
157	0x3e841c86	0.25803012
158	0x3f0ca449	0.5493818
159	0x3e4cf9cc	0.20017165
160	0x3e359dbe	0.17735955
161	0x3f161350	0.5862322
162	0x3dd41f6c	0.10357556
163	0x3e0949a0	0.13406992
164	0xbe45d4fe	-0.19319531
165	0x3d83b40d	0.06430826
166	0xbc715006	-0.014728552
167	0xbda9249e	-0.08258937
168	0x3d687119	0.056748483
169	0x3d2ce399	0.04220924
170	0x3b6fd2b6	0.00365941
171	0x3e86d40a	0.26333648
172	0xbe358fb1	-0.17730595
173	0x3e16c400	0.14723206
174	0x3eafd7c9	0.34344319
175	0xbe5c2147	-0.2149707
176	0xbda52509	-0.080637045
177	0x3dfe3672	0.12412728
178	0xbe21299f	-0.15738533
179	0xbda3111e	-0.07962249
180	0x3d8dddf5	0.069271006
181	0xbd8bbb6a	-0.06822856
182	0xbda0246e	-0.078194484
183	0x3e1995ec	0.14998597
184	0x3d96c50b	0.07361802
185	0xbdd369b3	-0.10322895
186	0x3e137216	0.14398989
187	0x3d442525	0.047886986
188	0xbddad9da	-0.10686083
189	0x3e171faf	0.1475818
190	0xbe408846	-0.18801984
191	0x3d021c88	0.03176549
192	0x3e1af250	0.15131497
193	0xbe655e68	-0.22399294
194	0xbd401db3	-0.046903323
195	0x3db38b0a	0.08766754
196	0x3c444963	0.011980387
197	0xbdd29ede	-0.10284208
198	0xbd76aa39	-0.06022093
199	0xbdbfacef	-0.09359156
200	0x3d5537f5	0.052055318
201	0xbc3fc209	-0.011703976
202	0x3c287e9c	0.010284092
203	0xbdcf1d73	-0.10113039
204	0x3e318d3a	0.1733903
205	0x3ea1c3db	0.31594738
206	0x3e82d42e	0.25552505
207	0xbd59ff44	-0.053221956
208	0x3db24ebc	0.08706424
209	0x3dfc0633	0.1230587
210	0x3d03bb8e	0.032161288
211	0xbd72263e	-0.0591185
212	0x3dcba783	0.0994406
213	0x3dd35b9f	0.1032021
214	0xbd982bbc	-0.07430217
215	0xbe40c34f	-0.18824504
216	0x3dee83f5	0.116462626
217	0xbd241737	-0.040061202
218	0x3b538438	0.0032274853
219	0xbe5fd2f3	-0.21857814
220	0xbd87954d	-0.06620274
221	0x3e4a7d2e	0.19774315
222	0xbe385285	-0.18000229
223	0x3dc2328f	0.094822995
224	0x3d87315e	0.06601213
225	0xbbc9e426	-0.0061612306
226	0x3d019a9f	0.0316416
227	0xbdaa7e0a	-0.08324821
228	0xbdc0a05e	-0.094055876
229	0xbd57564e	-0.05257254
230	0xbcfd48d5	-0.030918518
231	0xbbcd1bd2	-0.00625942
232	0xbb6e2352	-0.003633697
233	0xba9634cf	-0.001145983
234	0x3e1090e3	0.1411777
235	0xbb953d96	-0.0045544608
236	0xbce116cf	-0.027476696
237	0x3eb04d5f	0.3443403
238	0xbda4f37e	-0.08054255
239	0xbf0a7034	-0.5407746
240	0x3ef8544b	0.4850181
241	0xbdc97472	-0.09836663
242	0xbeddda2d	-0.43330517
243	0x3da0a1d9	0.0784337
244	0x3d763fbc	0.060119376
245	0x3cd8b2f9	0.026452528
246	0x3e00ccca	0.12578121
247	0xbd4b3b56	-0.049617134
248	0xbde43ce3	-0.11144426
249	0x3da04481	0.07825566
250	0x3d06d2c4	0.032915846
251	0xbdb5da18	-0.08879489
252	0x3d315a30	0.0432989
253	0xbd07b2b7	-0.03312942
254	0xbc975b12	-0.018476043
255	0xbdf06f6a	-0.117400005

conv2.bias f4 [16]
0	0x3dc7c713	0.09754767
1	0x3db2ae21	0.08724619
2	0xbc134009	-0.008987435
3	0x3e0eb67c	0.139368
4	0x3df67cb2	0.120355025
5	0x3de7fd1a	0.11327572
6	0xbe1007f6	-0.14065537
7	0x3d18206b	0.03714029
8	0x3df6e9b1	0.12056292
9	0x3e709ad9	0.2349657
10	0xbc1ff40d	-0.009762776
11	0x3e821fa9	0.2541478
12	0x3d4714e2	0.0486039
13	0xbe465c62	-0.19371179
14	0x3d3af8ba	0.04564736
15	0x3cfb4e6f	0.030677048

conv2_bn.weight f4 [16]
0	0x3f1afcab	0.6054179
1	0x3ece5635	0.40300146
2	0x3eb2d4d0	0.34927988
3	0x3ef312a2	0.47475153
4	0x3ed14ef5	0.40880552
5	0x3f2677a0	0.65026283
6	0x3f01c06e	0.5068425
7	0x3f2be134	0.6714051
8	0x3f295d58	0.66158056
9	0x3f23f19e	0.64040554
10	0x3ed52ffc	0.41638172
11	0x3e9a07d8	0.3008411
12	0x3e9aeed4	0.30260336
13	0x3f62e421	0.8862935
14	0x3e95ebfc	0.29281604
15	0x3ecf96e3	0.40544805

conv2_bn.bias f4 [16]
0	0x3d55dfb0	0.05221528
1	0x3ee61e8a	0.44945174
2	0x3ec3c64c	0.38237226
3	0xbe5be14b	-0.21472661
4	0x3d80d337	0.06290286
5	0xbe5896fd	-0.21151347
6	0xbe673b1c	-0.22581142
7	0x3e055b73	0.13023166
8	0xbec4c3bc	-0.38430583
9	0xbd5a0ad8	-0.053232998
10	0x3e07756c	0.13228387
11	0x3e31b602	0.17354587
12	0x3d673aa1	0.056452397
13	0xbed142d7	-0.40871307
14	0x3df6efdf	0.120574705
15	0x3e0faf0e	0.14031622

conv2_bn.running_mean f4 [16]
0	0xbecf1485	-0.40445343
1	0x3f1542ed	0.58305246
2	0x3f4c2df3	0.7975761
3	0xbee33795	-0.44378343
4	0xbf15db8a	-0.58538115
5	0xbf42adfa	-0.7604672
6	0xbf050c63	-0.51972026
7	0xbfd6121e	-1.6724279
8	0xbe9b6a0a	-0.3035434
9	0xbeb65b90	-0.35616732
10	0x3f4860c8	0.78272676
11	0xbf6d3390	-0.92656803
12	0x3fa78c7a	1.3089745
13	0xc01d5233	-2.458142
14	0x3bcb0712	0.006195911
15	0xbfd4982f	-1.6608943

conv2_bn.running_var f4 [16]
0	0x3f91db5c	1.1395068
1	0x3ec99a18	0.39375377
2	0x3eb54430	0.35403585
3	0x3ea1340e	0.31485027
4	0x3ec153c1	0.37759212
5	0x3eca94e7	0.39566728
6	0x3f0943ec	0.53619266
7	0x3f9f149f	1.2428168
8	0x3eaecae6	0.34139174
9	0x3f0fed8b	0.56221837
10	0x3eaf3a12	0.34223992
11	0x3e86d0ba	0.2633112
12	0x3f094bf6	0.5363153
13	0x3f6a3f00	0.9150238
14	0x3e9ea1c8	0.30982804
15	0x3ed3fb05	0.4140245

conv3.weight f4 [32, 16, 3, 3]
0	0x3d82178a	0.06352146
1	0xba95cf6d	-0.0011429616
2	0x3e0155ed	0.12630434
3	0x3da6112b	0.08108743
4	0x3d5f56d0	0.05452615
5	0x3e47be08	0.19506085
6	0xbe52a0e7	-0.20569192
7	0xbeaf843f	-0.34280583
8	0xbe77f2d6	-0.24213728
9	0x3d581ee7	0.052763846
10	0xbdc7e7ef	-0.09761035
11	0xbd0052aa	-0.031328835
12	0x3d51ecd4	0.051251248
13	0xbdd190cd	-0.10232697
14	0x3e0c127c	0.13678926
15	0x3e155284	0.14582258
16	0xbdaf8c12	-0.08571638
17	0xbd21f368	-0.03953877
18	0x3e42a8a5	0.19009645
19	0x3d806105	0.06268505
20	0x3dce28fb	0.1006641
21	0x3d18c297	0.03729495
22	0x3d21846f	0.03943294
23	0xbdab4717	-0.08363169
24	0xbe2b6521	-0.16737796
25	0x3dc89ab0	0.09795129
26	0x3de7cd41	0.11318446
27	0x3dfd78ef	0.12376582
28	0x3df09b28	0.11748344
29	0x3dc7d27f	0.09756946
30	0xbce74959	-0.028233217
31	0xbd338d3d	-0.043835867
32	0x3ccd4a94	0.025059976
33	0xbe055922	-0.13022283
34	0xbea13efe	-0.31493372
35	0xbed5a653	-0.41728458
36	0xbdd11188	-0.10208422
37	0x3d5fa6df	0.0546025
38	0xbd34c91f	-0.044137117
39	0xbd1ee3a8	-0.03879133
40	0xbe7ccb87	-0.24687015
41	0x3dd1e627	0.10248976
42	0x3e2ae212	0.16687801
43	0xbe56dfd4	-0.20983821
44	0x3e207011	0.1566775
45	0xbdabfb54	-0.083975464
46	0xbbd9cc0b	-0.0066466383
47	0x3ca51a21	0.02015406
48	0x3dc9327d	0.09824083
49	0x3c052ec9	0.00812883
50	0xbe203a29	-0.15647186
51	0xbec26494	-0.3796736
52	0xbe22913e	-0.15875718
53	0x3dc37c30	0.09545171
54	0xbc273529	-0.010205545
55	0x3dc6f79d	0.09715197
56	0xbc8f48e0	-0.017490804
57	0x3e0850c4	0.1331206
58	0x3df68404	0.12036899
59	0x3d848c01	0.06472016
60	0x3d7e6948	0.062112123
61	0x3e0e71a4	0.13910538
62	0xbd7379b7	-0.05944225
63	0xbdd401f9	-0.10351939
64	0x3a131142	0.00056101766
65	0x3cd22f3f	0.025657294
66	0x3db3e4b7	0.08783858
67	0x3baf53a4	0.005350547
68	0x3e093d67	0.1340233
69	0x3d7fac15	0.06241997
70	0xbe40180f	-0.18759178
71	0xbcdf0c16	-0.027227443
72	0xbbd32704	-0.00644386
73	0x3ba09925	0.0049010688
74	0xbc95c36c	-0.018281661
75	0x3c84a419	0.01619153
76	0xbe7abb71	-0.24485566
77	0xbd38f856	-0.045158707
78	0x3e354aa0	0.17704248
79	0xbed20cdd	-0.4102544
80	0xbd12be1f	-0.035825845
81	0x3df7d9f6	0.121021196
82	0x3c3ddc75	0.011588206
83	0x3d635b71	0.055507127
84	0xbe070fe9	-0.13189663
85	0xbde28d07	-0.11062055
86	0xbcf1e1f7	-0.029526694
87	0xbe8a80b8	-0.2705133
88	0xbde1b1f2	-0.110202685
89	0xbe28feeb	-0.16503493
90	0xbda481cc	-0.08032569
91	0x3d1f2eaf	0.03886288
92	0x3e1ef83c	0.15524381
93	0xbe5ca34e	-0.21546671
94	0xbdc5e169	-0.09662134
95	0x3ea5e3f4	0.32400477
96	0xbd8ad17d	-0.06778238
97	0x3da74e14	0.08169189
98	0xbdb7aaec	-0.08968148
99	0xbdea985a	-0.1145484
100	0x3e5bdfc2	0.21472076
101	0x3c8cfbe0	0.017209947
102	0x3de99c20	0.114067316
103	0xbdf028ae	-0.11726509
104	0x3e7c58e4	0.24643284
105	0xbe12e7cb	-0.14346235
106	0xbd2a7674	-0.041616872
107	0x3e61ef8f	0.2206404
108	0x3c57631a	0.013146186
109	0xbda72f1a	-0.08163281
110	0x3d96f513	0.07370963
111	0xbe22400e	-0.15844747
112	0xbd33ba19	-0.04387865
113	0xbc9dbd97	-0.019255443
114	0xbea96171	-0.33082154
115	0x3dd5cefd	0.104398705
116	0xbe68b96c	-0.22726983
117	0xbd98630c	-0.07440767
118	0x3d65c6a2	0.056097634
119	0xbc9fcc25	-0.019506523
120	0x3d848cf7	0.064721994
121	0xbe1eedbb	-0.15520374
122	0x3abe7fb2	0.0014533906
123	0x3e9c1a13	0.30488643
124	0xbf314b28	-0.69255304
125	0x3eee9d04	0.46604168
126	0xbd5a8c33	-0.05335636
127	0xbc5fd4e1	-0.013661594
128	0x3d1eef1c	0.03880225
129	0xbe5b5baa	-0.21421686
130	0xbc7eaa43	-0.015543523
131	0x3d5e1d81	0.054227356
132	0xbdacbe22	-0.084347025
133	0xbe08a391	-0.13343646
134	0x3dacda1e	0.0844004
135	0x3da69492	0.08133806
136	0xbe3c4182	-0.18384364
137	0xbd36bde2	-0.04461468
138	0x3c59f738	0.01330357
139	0x3e091599	0.13387145
140	0xbd2c343a	-0.042041995
141	0xbe4a3ba0	-0.19749308
142	0x3df3ace1	0.118982084
143	0xbe8533b8	-0.2601602
144	0xbe6d47bf	-0.231719
145	0x3e610745	0.2197543
146	0xbdb56205	-0.08856586
147	0xbde92379	-0.11383719
148	0x3ebe8da9	0.37217453
149	0x3ebe32df	0.37148187
150	0xbef63efd	-0.4809493
151	0x3df4553e	0.11930321
152	0x3e0f5bc1	0.13999845
153	0xbe44e4f7	-0.19227968
154	0x3ea2400c	0.3168949
155	0xbc80539e	-0.015664872
156	0xbe1825f0	-0.14858222
157	0x3dd79ece	0.105283365
158	0xbd2e49f3	-0.042550992
159	0xbe403652	-0.18770722
160	0x3d9b533a	0.075842336
161	0xbe14ca3f	-0.14530276
162	0xbdbc2b1d	-0.09187911
163	0x3c549bd1	0.012976603
164	0x3e712626	0.23549709
165	0xbe14ed1c	-0.14543575
166	0x3e568379	0.2094859
167	0x3db2c5aa	0.08729108
168	0xbde8f7a8	-0.11375362
169	0x3e56300c	0.20916766
170	0x3d855211	0.065097935
171	0x3e09c085	0.13452347
172	0x3d795dff	0.060880657
173	0x3e437851	0.19088866
174	0xbcac636b	-0.0210435
175	0xbd5f60b9	-0.0545356
176	0xbe1957dc	-0.14974922
177	0xbc84468e	-0.016146924
178	0xbd8cf131	-0.06881941
179	0x3dfcf92b	0.123522125
180	0x3e1ef920	0.15524721
181	0x3d79e9c4	0.061013952
182	0xbdadde6d	-0.0848969
183	0xbcbaef81	-0.022819282
184	0xbe32a564	-0.17445904
185	0xbe0bc4d6	-0.13649306
186	0x3e6bbd53	0.2302144
187	0xbe48499c	-0.1955933
188	0x3d4d3179	0.05009601
189	0xbccf9a47	-0.02534212
190	0xbd98da31	-0.07463492
191	0x3df32768	0.118727505
192	0xbd3d4a9e	-0.04621374
193	0xbd7df0fe	-0.061997406
194	0xbd7d4244	-0.061830774
195	0xbc01bb53	-0.007918197
196	0x3c266cf9	0.010157817
197	0xbcae983d	-0.021312827
198	0xbd035e40	-0.032072306
199	0x3e047585	0.12935455
200	0x3dc73659	0.09727163
201	0xbdddfb7e	-0.10838984
202	0x3de276a7	0.110577874
203	0xbd97665c	-0.073925704
204	0xbe6b157a	-0.22957411
205	0x3e837922	0.25678355
206	0xbd056f68	-0.03257695
207	0xbcd6a434	-0.026201345
208	0x3dd63797	0.10459822
209	0xbd0f6145	-0.035004873
210	0xbd6e72fd	-0.05821513
211	0x3c850f26	0.016242575
212	0xbe02ef1a	-0.12786523
213	0xbd8506ca	-0.064954355
214	0x3c9d702d	0.019218529
215	0xbdb7d540	-0.08976221
216	0xbe01d6fc	-0.12679666
217	0x3d94221c	0.07233068
218	0x3d8cf3c1	0.0688243
219	0xbdd3befd	-0.103391625
220	0x3d96f562	0.07371022
221	0x3dd0d159	0.1019618
222	0xbd572a00	-0.05253029
223	0x3db69569	0.089152165
224	0x3e72e81c	0.23721355
225	0x3e0ec9c5	0.13944156
226	0xbba6bcc7	-0.005088422
227	0xbe119a38	-0.14218986
228	0x3dd8e79e	0.105910525
229	0x3d0c4954	0.03424962
230	0xbd0424f0	-0.03226179
231	0x3e9250f8	0.285774
232	0x3d93f3c6	0.072242305
233	0x3e10fa74	0.1415804
234	0x3de59d6b	0.11211666
235	0x3e86fbe9	0.26364067
236	0xbd91e8b5	-0.071244635
237	0xbe79ec44	-0.24406534
238	0x3d5f821b	0.054567438
239	0x3ba6ab47	0.005086336
240	0xbc5865bf	-0.013207852
241	0x3a01177b	0.00049244583
242	0x3d09745b	0.03355823
243	0xbe182ad0	-0.14860082
244	0x3de82238	0.11334652
245	0x3e8610e7	0.2618477
246	0xbcd83890	-0.026394159
247	0xbc8282f8	-0.015931591
248	0x3e5b23cd	0.21400376
249	0x3c49d5e2	0.01231906
250	0x3d23d4d4	0.03999789
251	0x3e2a805f	0.16650532
252	0x3c821cb4	0.015882827
253	0xbd4d09db	-0.050058227
254	0xbe86a2f0	-0.26296186
255	0x3d472453	0.048618626

conv3.bias f4 [32]
0	0x3de56613	0.1120111
1	0xbcfbbba4	-0.030729122
2	0xbe3f0ba3	-0.18656783
3	0x3e39565a	0.18099347
4	0xbdbe7af8	-0.09300798
5	0x388d9849	6.751769e-05
6	0x3ddadabc	0.106862515
7	0x3ca4d086	0.020118963
8	0xbda067c6	-0.07832293
9	0xbd5d087b	-0.053963166
10	0x3df31e5f	0.11871027
11	0xbd47288e	-0.04862266
12	0xba9873d7	-0.0011631203
13	0x39a09b97	0.00030633502
14	0x3e04193e	0.12900254
15	0xbcb9cf23	-0.022681778
16	0xbe120446	-0.14259443
17	0x3d534079	0.051575158
18	0x3e0026e3	0.12514834
19	0x3e0145ed	0.12624331
20	0xbe1cd3e7	-0.1531521
21	0x3d921ad2	0.07134022
22	0xbdc9666b	-0.09833988
23	0xbce16b30	-0.027516931
24	0x3cd89896	0.026439946
25	0x3daf95c4	0.085734874
26	0xbe17f13a	-0.14838114
27	0x3e06d5c4	0.13167483
28	0xbd197f23	-0.037474763
29	0xbdc10dd4	-0.09426466
30	0x3b079a08	0.0020691175
31	0x3b824b69	0.0039762747

conv3_bn.weight f4 [32]
0	0x3f2c2cde	0.6725596
1	0x3f4a8afa	0.7911831
2	0x3f355c5d	0.7084406
3	0x3f71e040	0.94482803
4	0x3f811014	1.0083032
5	0x3f2823d0	0.65679646
6	0x3f09e989	0.5387197
7	0x3f65829f	0.89652437
8	0x3f53cc7b	0.8273389
9	0x3f1a7b86	0.6034473
10	0x3f4df57a	0.8045269
11	0x3f33e1b2	0.7026626
12	0x3f21ee32	0.6325408
13	0x3f60b1e9	0.8777147
14	0x3f1bfcfd	0.60932904
15	0x3f7a7e25	0.9784873
16	0x3f8e666a	1.1125004
17	0x3f11b3da	0.56915057
18	0x3f3df337	0.7419924
19	0x3f2d63af	0.6773023
20	0x3f62d530	0.8860655
21	0x3f4b12cd	0.7932556
22	0x3f5c8f4e	0.86156166
23	0x3f33f272	0.7029182
24	0x3f54637e	0.82964313
25	0x3f43eba4	0.76531434
26	0x3f67e619	0.90585476
27	0x3f2ba633	0.67050475
28	0x3f40f41f	0.753725
29	0x3f210fba	0.6291462
30	0x3f23fc8f	0.6405725
31	0x3ef2da6c	0.47432268

conv3_bn.bias f4 [32]
0	0xbeebc0ba	-0.46045476
1	0xbe9e30fd	-0.3089675
2	0xbe9d80f1	-0.30762437
3	0xbe2dfb20	-0.16990328
4	0xbe778a2c	-0.24173802
5	0xbebf140a	-0.37319976
6	0xbda6f6b3	-0.08152523
7	0xbe87e6aa	-0.2654317
8	0xbd63a0cc	-0.05557327
9	0xbe009ab4	-0.12559015
10	0xbe8ad69e	-0.27116865
11	0xbc1a9d3c	-0.009436902
12	0xbe96458e	-0.2934994
13	0xbdc94fa3	-0.098296426
14	0xbe174801	-0.14773561
15	0xbe887397	-0.26650688
16	0xbe92aa3a	-0.28645498
17	0xbe2b60f4	-0.16736203
18	0xbe121ec1	-0.14269544
19	0xbe21a38b	-0.15785043
20	0xbe9f8bf5	-0.31161466
21	0xbe8ae9e5	-0.27131572
22	0x3de563c3	0.11200669
23	0xbea69368	-0.32534337
24	0xbe5aa8ea	-0.21353498
25	0x3d85a0ab	0.065247856
26	0xbebc48b3	-0.36774215
27	0xbdaa7ccb	-0.083245836
28	0xbedc41fc	-0.43019092
29	0xbe7165f2	-0.23574045
30	0xbe1cab3d	-0.15299697
31	0x3db0375c	0.08604309

conv3_bn.running_mean f4 [32]
0	0xbed9e1b8	-0.42555022
1	0x3e965a9f	0.29366013
2	0xbf8458c4	-1.0339589
3	0xbee78299	-0.45216826
4	0xc048b945	-3.136308
5	0xbf1f8d7b	-0.6232526
6	0x3dc9d470	0.09854972
7	0xbfbca1fa	-1.4736931
8	0xc00dd07c	-2.2158499
9	0xc00db89b	-2.2143924
10	0xc0175482	-2.364533
11	0xc0054fdd	-2.0829995
12	0xbf411de1	-0.75436217
13	0xbef395f9	-0.47575358
14	0x3f54417f	0.8291244
15	0xbfcbcb6b	-1.5921453
16	0xc0299e26	-2.6502776
17	0xbeb6a6cc	-0.3567413
18	0x3f697f9b	0.91210335
19	0x3dadb796	0.08482282
20	0xbf7c2ab5	-0.98502666
21	0xbdff1cba	-0.12456651
22	0x3f0d508c	0.5520103
23	0xbfd767c3	-1.682854
24	0xbf46a3d2	-0.7759372
25	0xbef00382	-0.46877676
26	0xbfcf36ab	-1.6188558
27	0xbfa0b90d	-1.2556473
28	0xbedd53af	-0.43227908
29	0xbe59398e	-0.21213362
30	0x3d2b3dac	0.04180686
31	0x3d7c96d8	0.061667293

conv3_bn.running_var f4 [32]
0	0x3e48b75d	0.19601198
1	0x3e278d55	0.16362508
2	0x3ea67598	0.32511592
3	0x3e896bfd	0.268402
4	0x3f2f93a3	0.6858465
5	0x3e8808d9	0.2656925
6	0x3ea28a0d	0.3174595
7	0x3f09da07	0.5384831
8	0x3ee5f605	0.4491426
9	0x3ec0bce5	0.37644115
10	0x3ed834e3	0.4222785
11	0x3ee91f50	0.45531702
12	0x3ef0b895	0.47015825
13	0x3edc72b9	0.43056276
14	0x3e87fc09	0.26559475
15	0x3ea1d5d4	0.3160845
16	0x3f15ae2f	0.5846891
17	0x3eb689ea	0.35652095
18	0x3e8d740d	0.27627602
19	0x3ed6cda3	0.41953763
20	0x3ef7ac2a	0.48373538
21	0x3e9cca26	0.30622977
22	0x3ed0b8c2	0.4076596
23	0x3ea16093	0.31518993
24	0x3efba297	0.49147484
25	0x3e9650f6	0.29358643
26	0x3eb855f2	0.3600307
27	0x3e92123f	0.28529546
28	0x3ec5661a	0.3855446
29	0x3e757a2c	0.23972386
30	0x3e79a3de	0.24378917
31	0x3ea0ca48	0.31404328

fc1.weight f4 [64, 128]
0	0xbd48b322	-0.04899896
1	0x3d9cc179	0.076540895
2	0xbe446c60	-0.19181967
3	0xbe90fa29	-0.28315857
4	0xbe3fea02	-0.1874161
5	0xbe1850ae	-0.14874527
6	0xbdf216a6	-0.11820726
7	0xbccb0d09	-0.02478649
8	0x3f0a5cff	0.5404815
9	0x3ebcc96b	0.3687242
10	0x3e0eb480	0.13936043
11	0x3c58e768	0.013238765
12	0x3d0ef9c4	0.034906164
13	0x3dcfc5bf	0.10145139
14	0x3d8c4488	0.06849009
15	0x3e13b8d9	0.14425983
16	0xbd5b770e	-0.053580336
17	0xbdc60ccb	-0.09670409
18	0xbe82062a	-0.25395328
19	0xbe72770c	-0.23678225
20	0x3d15b23a	0.036546923
21	0xbd95c7ac	-0.07313475
22	0x3e8c34d3	0.27384052
23	0x3e67f717	0.22652851
24	0x3ed3eb27	0.41390345
25	0x3e8d5c4b	0.27609476
26	0x3ecd8956	0.40143842
27	0x3e9fe649	0.3123038
28	0x3d640db2	0.055677123
29	0x3d7851a4	0.060624734
30	0xbbfd810b	-0.0077363304
31	0xbe4529d3	-0.19254236
32	0x3d6fef6d	0.058577944
33	0x3dbe9afd	0.093069054
34	0xbdb08dfc	-0.08620831
35	0x3d17251b	0.03690062
36	0x3ce681b8	0.028138027
37	0xbdb3b011	-0.087738164
38	0x3ea7549c	0.3268174
39	0x3e4bd54a	0.19905582
40	0x3ccca9e1	0.024983348
41	0x3e0435b0	0.12911105
42	0x3dc08768	0.09400827
43	0xbcfa2920	-0.030537188
44	0x3d8afba0	0.06786275
45	0xbd1f3253	-0.038866352
46	0x3b4f4708	0.0031628031
47	0xbcad907c	-0.02118706
48	0x3e10ec32	0.14152601
49	0x3daaf507	0.083475165
50	0xbeb4d171	-0.3531604
51	0xbe6004d8	-0.21876848
52	0xbd64b580	-0.055837154
53	0x3da64c12	0.08119978
54	0x3e306ffe	0.17230222
55	0x3e502cd0	0.20329595
56	0xbe09d2a1	-0.13459255
57	0xbd3d53cf	-0.046222504
58	0x3d8b44ee	0.06800257
59	0x3d8944ec	0.06702599
60	0xbe176482	-0.14784434
61	0xbd4d6068	-0.05014077
62	0x3de524d1	0.11188663
63	0x3e012da1	0.12615062
64	0x3dae1365	0.08499793
65	0x3c9f0f74	0.019416548
66	0xbe0a2226	-0.13489589
67	0xbe07a082	-0.13244823
68	0x3cc5fa39	0.024167167
69	0x3cb52fab	0.022117456
70	0x3e47330c	0.19453067
71	0x3e08d6aa	0.13363138
72	0xbe807c14	-0.25094664
73	0xbe80a37e	-0.25124735
74	0x3a8d3ed9	0.0010776176
75	0xbd6dfb3a	-0.058100916
76	0xbf051e1e	-0.5199908
77	0xbeb7e187	-0.3591425
78	0xbdd1bb69	-0.10240824
79	0xbe60a8db	-0.21939413
80	0xbe32340b	-0.17402665
81	0xbeaaa434	-0.33328402
82	0xbe73f6fb	-0.23824684
83	0xbe870c3c	-0.26376522
84	0xbde9318f	-0.11386406
85	0xbe0688e6	-0.1313816
86	0xbe1ba236	-0.15198597
87	0xbeaf4803	-0.34234628
88	0xbe8c8c1a	-0.2745064
89	0xbe8b589e	-0.27216047
90	0x3e0a2e41	0.13494207
91	0x3ddccc37	0.107811384
92	0xbe57af99	-0.21063079
93	0xbe2944ed	-0.165302
94	0x3dd6836f	0.10474288
95	0x3db94e68	0.09048158
96	0xbbe0be1d	-0.006858601
97	0xbe288257	-0.1645597
98	0x3d3ef3c3	0.046619188
99	0xbd0bf469	-0.034168635
100	0x3d8c12a8	0.06839496
101	0x3d8f3d81	0.06994153
102	0x3dbd3b48	0.092398226
103	0x3dda7e78	0.10668653
104	0x3c09fc2d	0.00842194
105	0xbc704b2d	-0.014666361
106	0x3e59a13a	0.2125291
107	0x3e179469	0.14802708
108	0x3e9d32d5	0.30702844
109	0x3e7c11f4	0.24616224
110	0x3e021556	0.12703452
111	0x3c8b9be9	0.017042117
112	0x3e2ba8dc	0.16763633
113	0x3d45f226	0.048326634
114	0x3df47852	0.11937012
115	0x3daaa93c	0.0833306
116	0xbeb79da8	-0.3586247
117	0xbe9b2492	-0.30301338
118	0xbe5e1e94	-0.21691352
119	0xbe957cde	-0.2919683
120	0x3d000c22	0.03126157
121	0xbe4067a9	-0.18789543
122	0x3c9d8249	0.019227164
123	0x3d8d7b16	0.069082424
124	0xbca2c6ab	-0.019870123
125	0x3d71e2a4	0.059054032
126	0x3dc92feb	0.09823593
127	0xbda067cc	-0.07832298
128	0x3d4a2b7d	0.04935788
129	0xba88f0ae	-0.0010447705
130	0x3e2c6ed5	0.16839154
131	0x3e1578a8	0.14596808
132	0xbd4ff948	-0.050774843
133	0xbdb69962	-0.08915974
134	0x3ce31aac	0.02772268
135	0x3d4b80bc	0.049683318
136	0x3d8ded1d	0.069299914
137	0xbdf4ad40	-0.11947107
138	0xbd8e851e	-0.06958984
139	0xbc8b6e4a	-0.017020363
140	0xbdb50dff	-0.0884056
141	0x3cbc8366	0.023011874
142	0xbd925097	-0.071442775
143	0xbd429df6	-0.047513925
144	0x3dcf5e1d	0.101253726
145	0x3bbcf559	0.0057665524
146	0xbc965de0	-0.01835531
147	0x3da20887	0.07911783
148	0xbd8db79a	-0.06919785
149	0xbd4c5d2f	-0.049893554
150	0x3d69292b	0.056924026
151	0xbb820e8b	-0.003969019
152	0x3e08dbd4	0.13365108
153	0x3d397415	0.04527672
154	0xbd64bfd0	-0.05584699
155	0x3d007532	0.031361766
156	0xbd9b32a8	-0.07578021
157	0x3d7e68aa	0.062111534
158	0x3ba9d6df	0.0051830853
159	0xbd41fc40	-0.047359705
160	0x3cfaa52d	0.03059634
161	0x3cd6ce0e	0.026221301
162	0x3dc6ff94	0.097167164
163	0xbd04846e	-0.032352857
164	0xbc1e1126	-0.009647643
165	0xbe3759df	-0.17905377
166	0xbc27c8b4	-0.010240722
167	0xbd047994	-0.03234251
168	0xbe2261f6	-0.15857682
169	0x3d8cbe85	0.06872276
170	0xbd87b355	-0.06626002
171	0x3e364bb7	0.1780232
172	0x3d59440b	0.053043406
173	0x3c0435c7	0.008069462
174	0xbe682f1b	-0.2267422
175	0x3d877da2	0.066157594
176	0x3ea9926f	0.33119532
177	0x3e8871b9	0.26649264
178	0x3ee0e489	0.43924358
179	0x3e8ee450	0.27908564
180	0xbe319601	-0.17342378
181	0x3dcc1fd8	0.09967011
182	0xbe417f82	-0.18896297
183	0xbd836eba	-0.06417604
184	0x3e916127	0.28394434
185	0x3e4d7a34	0.20066148
186	0x3e4cfbed	0.20017977
187	0x3e9db9b8	0.30805755
188	0xbd18a27f	-0.037264343
189	0xbdd48204	-0.10376361
190	0x3e853765	0.26018825
191	0x3d32be9d	0.043638814
192	0x3e8a80dc	0.27051437
193	0x3cbf63ca	0.023363013
194	0xbd58849c	-0.05286084
195	0xbd480ece	-0.048842244
196	0xb9319c11	-0.00016938175
197	0x3e2b59fd	0.16733547
198	0x3e40dcf8	0.18834293
199	0x3e28a235	0.16468127
200	0xbdcddf39	-0.10052342
201	0xbd29017c	-0.04126118
202	0x3d5d16d1	0.053976838
203	0xbe553bb0	-0.2082355
204	0xbe4a9709	-0.19784178
205	0xbceecc9e	-0.029150303
206	0xbe313cd6	-0.17308363
207	0xbe721211	-0.23639704
208	0xbd691374	-0.056903318
209	0xbe25bc73	-0.16185169
210	0x3d5c8169	0.053834353
211	0x3d3146c2	0.04328037
212	0x3ce6f28f	0.028191833
213	0xbcf59a9c	-0.02998095
214	0x3e48289b	0.1954674
215	0x3e4cd37d	0.20002551
216	0x3def4a0e	0.11684047
217	0x3d7d3026	0.061813496
218	0x3ce741fc	0.028229706
219	0xbd834ee7	-0.06411534
220	0xbe800bd0	-0.25009012
221	0xbe131a26	-0.14365444
222	0xbebd9938	-0.3703096
223	0xbe8e932c	-0.27846658
224	0xbd3cfd51	-0.04614002
225	0xbda97123	-0.08273532
226	0xbda9d83c	-0.082931966
227	0x3ce1a28d	0.02754333
228	0xbdaa287e	-0.083085045
229	0xbd6b3425	-0.057422776
230	0xbe066ad7	-0.13126694
231	0xbe0e94b0	-0.13923907
232	0xbd60f4a5	-0.05492081
233	0xbd5ae61e	-0.053442113
234	0xbdbb7282	-0.091527
235	0x3d626aa0	0.055277467
236	0xbe728fff	-0.23687743
237	0xbe894b66	-0.26815337
238	0xbe33d5a5	-0.17561968
239	0xbee4ccbc	-0.4468745
240	0x3e4f95f6	0.2027205
241	0x3e0b4de7	0.13603936
242	0x3c66ce33	0.014087248
243	0xbc14491b	-0.009050633
244	0xbd29509c	-0.04133664
245	0xbc6ec4d7	-0.014573297
246	0x3d29ffd7	0.041503754
247	0x3e1a1fa3	0.15051131
248	0x3d2eb943	0.042657148
249	0xbda7b318	-0.08188456
250	0xbd1e89eb	-0.038705748
251	0xbeb4d3ac	-0.35317743
252	0x3e7f6c40	0.24943638
253	0x3ec8b5e4	0.39201272
254	0x3e5791c0	0.21051693
255	0x3e8e8e0b	0.27842745

fc1.bias f4 [64]
0	0x3e816a30	0.25276327
1	0xbd9cac29	-0.076500244
2	0x3e239ed4	0.15978557
3	0x3d2dc3da	0.042423107
4	0xbe877f6d	-0.26464406
5	0x3de57dd5	0.11205641
6	0x3e16024d	0.14649315
7	0xbe5f2d33	-0.21794586
8	0xbcb9cea8	-0.02268155
9	0xbdc3f59b	-0.0956833
10	0xbda13694	-0.07871738
11	0x3caffd61	0.021483125
12	0xbdaff32c	-0.08591303
13	0x3dc3c487	0.09558969
14	0x3e8a667f	0.27031323
15	0xbde91e2c	-0.11382708
16	0xbe1226a8	-0.14272559
17	0x3d943a2f	0.0723766
18	0x3f0691ea	0.525664
19	0xbd545b92	-0.05184514
20	0x3e02a830	0.12759471
21	0x3e48b895	0.19601662
22	0x3d223479	0.039600823
23	0x3df2d043	0.11856129
24	0x3e901ad2	0.28145462
25	0xbc03d96e	-0.008047445
26	0x3e6d9287	0.23200427
27	0x3eac47cb	0.33648524
28	0xbdf89b63	-0.12139013
29	0x3e874cea	0.26425868
30	0xbecc122c	-0.39857614
31	0x3eb52481	0.35379413
32	0x3e0563d5	0.13026364
33	0xbd6e52ae	-0.05818432
34	0xbdbcf55f	-0.09226488
35	0xbc701f10	-0.014655843
36	0x3d85c1da	0.06531115
37	0x3d3fbc36	0.04681035
38	0xbd852704	-0.06501582
39	0x3e85c9a5	0.26130405
40	0xbe604e83	-0.2190495
41	0x3e3695d8	0.17830598
42	0xbd548543	-0.0518849
43	0xbdcc6133	-0.09979477
44	0x3e02e662	0.12783197
45	0x3dc53749	0.096296854
46	0x3e6f0078	0.23340023
47	0x3e220cd6	0.15825209
48	0xbe7c1f79	-0.24621381
49	0x3e37854a	0.1792194
50	0xbe85924d	-0.2608818
51	0xbdfbaa60	-0.12288356
52	0xbe3de118	-0.18542898
53	0x3e5cac60	0.21550131
54	0x3e5df2d7	0.21674667
55	0xbdeeb7eb	-0.11656173
56	0x3cdd74f0	0.0270333
57	0xbd356ba5	-0.04429211
58	0x3e112599	0.14174499
59	0xbc933b56	-0.01797263
60	0x3e10f24c	0.14154929
61	0xbc9b96ba	-0.01899277
62	0x3bba0a1d	0.005677475
63	0x3dc9449e	0.09827541

fc2.weight f4 [10, 64]
0	0x3c786de6	0.015162921
1	0x3e558883	0.20852856
2	0xbcf66b5d	-0.030080492
3	0xbe46f4d5	-0.19429334
4	0x3cf551a0	0.029946148
5	0xbc507308	-0.012722738
6	0x3e3e8fd4	0.18609554
7	0xbe897eee	-0.26854652
8	0x3e9efa9b	0.31050572
9	0x3e2bb07c	0.16766542
10	0x3e455597	0.19270931
11	0x3b65ebd3	0.003508319
12	0xbd78997e	-0.060693257
13	0x3e4c4e68	0.19951785
14	0x3e6ce50a	0.23134246
15	0xbebbeeee	-0.36705726
16	0xbeb72665	-0.3577148
17	0xbecc9281	-0.39955524
18	0x3ce1aa0c	0.027546905
19	0xbcef6130	-0.029221147
20	0xbdca2c52	-0.09871735
21	0xbd74d972	-0.059777685
22	0x3d6bf9d5	0.057611305
23	0x3ee40977	0.4453847
24	0xbde3d332	-0.11124267
25	0x3d9b56f2	0.07584943
26	0x3e995717	0.29949257
27	0xbd2f0783	-0.042731773
28	0xbede658f	-0.43436858
29	0xbe39e934	-0.18155366
30	0xbee52397	-0.44753715
31	0x3d579e6f	0.05264133
32	0xbe52a249	-0.2056972
33	0x3d7e41dd	0.06207453
34	0x3dcf2581	0.10114575
35	0x3db30b4e	0.087423906
36	0xbd3ff6d1	-0.04686624
37	0x3e48caf5	0.19608672
38	0xbe3ac2e4	-0.18238407
39	0xbe5fbd14	-0.21849471
40	0x3e823438	0.25430465
41	0x3d41b309	0.04728988
42	0x3e66580c	0.22494525
43	0x3d552a8f	0.05204254
44	0xbe5aa372	-0.21351412
45	0x3e0f601a	0.14001504
46	0xbd5c917d	-0.053849686
47	0x3dfd98ab	0.12382635
48	0xbeb1c2b9	-0.34718874
49	0x3e969d71	0.29416993
50	0xbed868d0	-0.42267466
51	0x3ea7834c	0.3271736
52	0x3e2dd25c	0.16974777
53	0xbf0a26da	-0.5396553
54	0x3eb749bf	0.3579845
55	0xbe5f6bfc	-0.21818537
56	0xbeb43ec2	-0.3520413
57	0x3e09cf5e	0.1345801
58	0xbe946333	-0.28981933
59	0x3d8b25c5	0.06794313
60	0x3e97619a	0.29566652
61	0x3e926b82	0.28597647
62	0xbf090dbf	-0.535366
63	0xbd87a21b	-0.06622716
64	0x3ce8ad9c	0.028403096
65	0x3d97cf36	0.07412569
66	0x3e8a61a8	0.2702763
67	0x3d191fe9	0.037383948
68	0x3e2a9712	0.16659191
69	0xbe8e6304	-0.27809918
70	0x3e11ac21	0.14225818
71	0xbd69cf4d	-0.057082463
72	0xbef189f9	-0.47175577
73	0x3e9072ed	0.2821268
74	0xbd3a4710	-0.045477927
75	0x3d58fe04	0.052976623
76	0x3da8ed12	0.082483426
77	0x3d1662c0	0.03671527
78	0xbec6ec4f	-0.38852164
79	0xbed21327	-0.41030237
80	0x3e46eccd	0.1942627
81	0x3e9051ce	0.28187412
82	0x3da25206	0.07925801
83	0x3f4f0d3b	0.80879563
84	0x3ec00f8f	0.3751187
85	0x3e704f07	0.23467647
86	0xbedfc13f	-0.43702123
87	0xbee08917	-0.4385459
88	0xbef64814	-0.48101866
89	0x3cf8ff82	0.030395273
90	0xbeb41199	-0.35169676
91	0xbe638672	-0.22219256
92	0x3e4928da	0.1964449
93	0xbe1ea1a6	-0.15491351
94	0x3d4b8b42	0.049693353
95	0xbeb4aad7	-0.3528659
96	0xbea32941	-0.31867412
97	0x3ed11c07	0.40841696
98	0x3dd152b9	0.10220856
99	0xbf0f9a59	-0.5609489
100	0x3e88ec4e	0.26742786
101	0x3c4e0039	0.012573295
102	0x3d962b1a	0.0733244
103	0x3dabcdef	0.08388888
104	0xbebf518c	-0.37366903
105	0x3e96fc77	0.2948949
106	0xbcefccb9	-0.029272424
107	0xbebd61d3	-0.36988696
108	0x3e089c32	0.13340834
109	0x3da46f92	0.08029093
110	0xbf2058ea	-0.6263567
111	0x3e4d8dd2	0.20073631
112	0x3d381f58	0.044951767
113	0xbe8046fd	-0.2505416
114	0xbef5b200	-0.47987366
115	0xbe98a796	-0.29815358
116	0x3da5f209	0.08102805
117	0xbe8e85f7	-0.27836582
118	0x3e472b5f	0.19450139
119	0xbeb19fee	-0.3469233
120	0xbd8ae098	-0.06781119
121	0x3de5a7d7	0.112136535
122	0xbe430209	-0.19043745
123	0xbd8aac20	-0.067711115
124	0xbefcec0d	-0.49398842
125	0x3edffda5	0.43748203
126	0xbf0b1657	-0.5433096
127	0x3ec6e62a	0.38847476
128	0xbed412e4	-0.41420662
129	0x3dc82085	0.097718276
130	0xbe32b9a9	-0.17453636
131	0x3e0914ce	0.13386843
132	0x3e0e4558	0.1389364
133	0xbd167ebe	-0.036741965
134	0xbe152455	-0.14564641
135	0xbe4c9548	-0.19978821
136	0x3e9cbb68	0.3061173
137	0x3dd724c0	0.105050564
138	0x3e3ff0b1	0.1874416
139	0xbd9e44e2	-0.07727982
140	0xbb35fd30	-0.002776932
141	0x3e1ba385	0.15199097
142	0xbd96d2b8	-0.0736441
143	0x3de6e8d7	0.112748794
144	0xbd13fd11	-0.036130015
145	0x3e818d2e	0.25303024
146	0xbed61ad7	-0.41817352
147	0x3d9a89a4	0.07545784
148	0xbeb24b13	-0.34822902
149	0xbe91e73a	-0.28496724
150	0x3e217190	0.15765977
151	0xbb09b9c4	-0.0021015266
152	0xbe0818d8	-0.13290727
153	0xbc918ffb	-0.01776885
154	0xbed5f87a	-0.41791135
155	0x3c2f2836	0.010690739
156	0x3ace21d6	0.0015726637
157	0xbed8843b	-0.42288384
158	0x3e921c0a	0.28537017
159	0xbe5c6985	-0.21524628
160	0xbe202d87	-0.15642367
161	0x3d45fb04	0.04833509
162	0xbdaf1649	-0.085491724
163	0x3e1b83c0	0.15186977
164	0xbec180e0	-0.37793636
165	0x3d18e1d7	0.037324753
166	0x3d74d785	0.059775848
167	0xbe6d1f4e	-0.23156473
168	0x3efcd177	0.4937856
169	0xbedb4b0a	-0.42830688
170	0x3e3b9847	0.18319808
171	0xbd91f0fa	-0.07126041
172	0xbedc1db6	-0.42991418
173	0xbd0f112d	-0.03492849
174	0x3d85a0c1	0.06524802
175	0xbc38a93a	-0.0112708155
176	0x3e1f7f9e	0.15576026
177	0x3e051525	0.12996347
178	0x3e9c70e5	0.30554882
179	0x3e4c048d	0.19923611
180	0x3de8d654	0.11369005
181	0x3e51622d	0.20447607
182	0xbe00f4b0	-0.12593341
183	0x3e2affbb	0.16699116
184	0x3e3a58fc	0.18198007
185	0x3de3399b	0.11094972
186	0xbe94292e	-0.28937668
187	0xbcaff6a5	-0.021479914
188	0x3e34f48e	0.17671415
189	0x3ee8368b	0.45354113
190	0xbe9257e6	-0.28582686
191	0xbdc617d3	-0.09672513
192	0x3cdc9bfa	0.026929844
193	0xbd9d7a79	-0.076893754
194	0xbeb9b292	-0.3626905
195	0x3c6b6a42	0.014368596
196	0xbec90be6	-0.3926689
197	0x3eb3b53b	0.35099205
198	0xbd9490a6	-0.07254152
199	0xb983c53b	-0.00025133215
200	0x3ddc473e	0.10755776
201	0xbd4fce6f	-0.05073398
202	0xbdbffb1b	-0.093740664
203	0x3ce1eebd	0.02757966
204	0xbdac251d	-0.08405516
205	0x3e677e6f	0.22606824
206	0x3e349213	0.17633848
207	0x3d887a40	0.06663942
208	0xbe8d5b1c	-0.27608573
209	0xbd03a06a	-0.032135405
210	0x3daefe16	0.08544557
211	0x3b0e7b1e	0.0021740864
212	0xbe35f96e	-0.17770931
213	0xbe27df2c	-0.16393727
214	0x3d0ebead	0.03484981
215	0xbea974db	-0.33096966
216	0x3eb8c4df	0.360877
217	0xbebfa995	-0.37434068
218	0xbe506039	-0.20349206
219	0xbe2b0100	-0.166996
220	0xbdc2f3b4	-0.09519139
221	0xbb640396	-0.0034792176
222	0x3d5e93c6	0.054340146
223	0x3dffee8c	0.12496671
224	0x3eb33716	0.35002965
225	0xbf00dd33	-0.50337523
226	0x3bd2bf26	0.006431478
227	0xbd77aae1	-0.060465697
228	0x3e39ffad	0.18163939
229	0xbe12a34d	-0.14320107
230	0xbd82b1dc	-0.0638158
231	0xbdc9c9b6	-0.098529264
232	0xbe658c66	-0.22416839
233	0xbe3ab7a6	-0.18234119
234	0xbeb9d7fd	-0.36297598
235	0xbde790b1	-0.113068946
236	0x3e6b190e	0.22958776
237	0xbd80c3ed	-0.0628737
238	0xbcb69f0b	-0.022292634
239	0x3cd278de	0.0256924
240	0x3ce0c0f4	0.027435757
241	0xbd9382e0	-0.07202697
242	0xbd42ffb0	-0.047607124
243	0x3d09138d	0.03346591
244	0xbe10986b	-0.14120643
245	0xbe444b07	-0.19169246
246	0xbe82a26c	-0.25514543
247	0x3dce3dd9	0.1007039
248	0x3e41fbdd	0.18943734
249	0x3d6ed167	0.05830517
250	0x3ebe9e7c	0.3723029
251	0x3d19d7ab	0.037559193
252	0x3e46db42	0.19419578
253	0xbd901b66	-0.07036476
254	0xbdc54e7a	-0.09634109
255	0x3e13cf1c	0.14434475

fc2.bias f4 [10]
0	0x3e653f8e	0.22387525
1	0xbd7e544d	-0.062092114
2	0xbed8fc27	-0.42379877
3	0x3e3d2f61	0.18475105
4	0xbdc43f60	-0.095824
5	0x3e078765	0.13235243
6	0xbd88aefa	-0.06673999
7	0xbe4ad7b0	-0.19808841
8	0xbe105f2c	-0.14098805
9	0x3e800b90	0.2500882
