exp_cifar/models/cifar_tiny_resnet18_cifar10_hint_cifar10.model (torch_old, 63528 bytes, 22 tensors)

conv1.weight f4 [8, 3, 3, 3]
0.059985552 0.14323875 -0.044326827 -0.21983717 -0.1773563 -0.18298368 0.032111987 0.30179018
0.20852625 -0.01011364 0.24552974 0.012946616 -0.25960585 -0.12985916 -0.25700673 0.20980257
0.10585115 0.064129695 0.15295193 -0.0065172827 0.082755044 -0.18215278 -0.18077473 -0.085210785
-0.010951803 -0.017124763 0.049498834 -0.08123267 0.31683502 0.050140794 -0.045541104 -0.3592076
0.2504043 0.22341715 0.004732306 -0.027255643 -0.08372738 0.13243747 -0.03819084 0.037019417
-0.22797619 0.16838953 0.2544203 0.07015636 -0.047920555 -0.12613764 0.19817899 0.1989823
0.09647127 -0.33160764 0.26199955 0.22389698 -0.04704017 -0.1157437 -0.22169176 0.14919612
0.0698066 0.08813471 -0.0094216755 -0.008391052 -0.041389298 -0.07538507 0.10943947 -0.20615903
0.06901205 -0.14095972 -0.06415252 -0.16206335 -0.027666451 0.051968385 -0.04426907 -0.2529117
-0.04029073 0.5819662 0.25163388 0.37570167 0.23467875 0.3577888 0.28918344 0.10373397
-0.060851708 -0.00072873867 0.029730221 0.11771898 0.05586022 0.14213212 -0.020224227 0.056065697
0.1322755 0.18483841 0.2467494 0.029615045 0.024663964 0.07717074 0.27603385 0.16243353
0.23701067 -0.05694538 0.22689566 -0.24214466 -0.043654483 -0.13338211 -0.2510629 -0.016047232
-0.32062978 -0.16404286 -0.14153366 -0.17442182 -0.025681267 0.2297581 -0.2021914 0.19253801
-0.29813647 0.016433958 -0.036523294 -0.06764339 0.055505816 -0.14093393 0.27811456 -0.13438335
0.21089455 -0.16193038 -0.008816749 -0.1061586 -0.118574254 0.2214022 -0.07355984 0.24693145
-0.20261829 0.11180865 -0.23473233 0.00924092 0.00040211753 -0.16871135 0.13193539 -0.090189934
0.0339704 -0.029545251 0.19114994 0.18983367 0.28790808 -0.041687097 0.46187252 0.15385799
-0.032946073 -0.0738468 -0.08765076 -0.17545885 -0.2639438 -0.14560516 -0.14004596 -0.30879146
-0.099160865 0.10251865 0.065034464 0.06829426 0.066660725 0.03257545 -0.15231141 0.20271596
-0.19640547 -0.09088061 -0.07451059 0.17176996 -0.12519361 -0.08396992 0.15549268 -0.12081255
-0.14221393 0.21169676 -0.07290688 -0.10010832 0.14863499 -0.06358856 -0.17995054 0.31254402
-0.10703008 -0.09198565 0.2689517 -0.15916081 -0.108594485 0.1837517 -0.033445824 -0.117810585
0.31855157 -0.14980839 -0.08279556 0.19892599 -0.08719132 0.24131653 -0.1794458 -0.23153602
-0.078917556 0.34754673 0.14226931 -0.20709339 -0.056946382 -0.03915265 -0.08068843 0.079626404
0.023860937 0.03118454 0.42316046 0.015219659 -0.17505738 -0.36936653 -0.15958808 0.16617155
-0.17245442 0.019972097 -0.029245941 0.095066056 0.07361264 -0.012970842 -0.102509916 -0.08694752
00000000: 69b3 753d 2ead 123e 0c90 35bd ff1c 61be
00000010: e49c 35be 1360 3bbe dc87 033d 3e84 9a3e
00000020: e887 553e aeb3 25bc 266c 7b3e 0b1e 543c
00000030: 0feb 84be cdf9 04be 6396 83be 7cd6 563e
00000040: 7dc8 d83d 6e56 833d 6e9f 1c3e ee8e d5bb
00000050: 7a7b a93d 4286 3abe 031d 39be fe82 aebd
00000060: 316f 33bc 3b49 8cbc 4abf 4a3d 505d a6bd
00000070: 3338 a23e 6f60 4d3d 4f89 3abd 0fea b7be
00000080: fe34 803e 77c7 643e 7611 9b3b 3a47 dfbc
00000090: 4379 abbd b09d 073e 006e 1cbd aca1 173d
000000a0: 9772 69be 4e6e 2c3e 6143 823e 23ae 8f3d
000000b0: 5848 44bd 3a2a 01be 6fef 4a3e 04c2 4b3e
000000c0: bb92 c53d 7ac8 a9be ce24 863e 4045 653e
000000d0: 31ad 40bd 080b edbd 2a03 63be dec6 183e
000000e0: c3f6 8e3d f97f b43d 5f5d 1abc 9f7a 09bc
000000f0: d387 29bd 7d63 9abd cd21 e03d 5a1b 53be
00000100: 3156 8d3d bf57 10be 6562 83bd eff3 25be
00000110: c1a4 e2bc cddc 543d 7c53 35bd a47d 81be
00000120: e407 25bd bdfb 143f 28d6 803e f85b c03e
00000130: a04f 703e 1830 b73e da0f 943e 7a72 d43d
00000140: a43f 79bd d308 3fba cb8c f33c a616 f13d
00000150: b0cd 643d 158b 113e 47ad a5bc 25a5 653d
00000160: 3b73 073e 4846 3d3e e0ab 7c3e 409b f23c
00000170: 150c ca3c b10b 9e3d 4f54 8d3e fa54 263e
00000180: edb2 723e 8f3f 69bd 5657 683e c5f4 77be
00000190: 0bcf 32bd 5295 08be 518b 80be 7c75 83bc
000001a0: 9629 a4be dafa 27be 33ee 10be a29b 32be
000001b0: 8561 d2bc b545 6b3e 430b 4fbe af28 453e
000001c0: 58a5 98be 82a0 863c 7399 15bd 9e88 8abd
000001d0: 115a 633d fc50 10be 0865 8e3e ca9b 09be
000001e0: bef4 573e 14d1 25be 2074 10bc ae69 d9bd
000001f0: 0fd7 f2bd 42b7 623e 8ba6 96bd 99db 7c3e
00000200: 2b7b 4fbe effb e43d ac5d 70be 3a67 173c
00000210: 4dd3 d239 abc2 2cbe 121a 073e 80b5 b8bd
00000220: 8c24 0b3d e208 f2bc cfbc 433e c263 423e
00000230: b068 933e 17c0 2abd 8e7a ec3e f38c 1d3e
00000240: 76f2 06bd fe3c 97bd 3e82 b3bd 7cab 33be
00000250: a423 87be 8519 15be 3568 0fbe ea19 9ebe
00000260: da14 cbbd 4cf5 d13d ca30 853d dcdd 8b3d
00000270: 6b85 883d d66d 053d 86f7 1bbe c694 4f3e
00000280: 841e 49be 9d1f babd 0299 98bd 77e4 2f3e
00000290: c132 00be 6cf8 abbd 7939 1f3e 926c f7bd
000002a0: 87a0 11be 09c7 583e 3450 95bd 9705 cdbd
000002b0: c533 183e b83a 82bd f444 38be c505 a03e
000002c0: 9632 dbbd f962 bcbd 0ab4 893e 0dfb 22be
000002d0: c966 debd 6829 3c3e 7dfe 08bd ad46 f1bd
000002e0: 3119 a33e 5f67 19be b890 a9bd 41b3 4b3e
000002f0: 5d91 b2bd ae1b 773e a4c0 37be c717 6dbe
00000300: 879f a1bd a5f1 b13e 0caf 113e 4a10 54be
00000310: 9c40 69bd 875e 20bd fa3f a5bd 2b13 a33d
00000320: 0378 c33c b876 ff3c 7da8 d83e e05b 793c
00000330: 3e42 33be 9c1d bdbe 0f6b 23be e028 2a3e
00000340: e497 30be 869c a33c 2f95 efbc feb1 c23d
00000350: 39c2 963d a883 54bc b8f0 d1bd 8b11 b2bd

conv1.bias f4 [8]
0.006330103 0.065702334 0.28695452 0.0663114 -0.15073515 -0.03602599 0.029300338 0.15724978
00000000: c16c cf3b f28e 863d b4eb 923e 45ce 873d
00000010: 515a 1abe fd8f 13bd 4307 f03c 1606 213e

conv1_bn.weight f4 [8]
0.4421998 0.5045333 0.70623976 0.49486324 0.4147013 0.51672006 0.6652488 0.38495454
00000000: 0368 e23e 1829 013f 21cc 343f b75e fd3e
00000010: bb53 d43e c447 043f bf4d 2a3f c318 c53e

conv1_bn.bias f4 [8]
0.077076495 -0.11174661 0.87071264 0.35955837 0.39303392 0.3224511 0.022544144 0.017108496
00000000: 48da 9d3d 68db e4bd 06e7 5e3f 0918 b83e
00000010: be3b c93e 5018 a53e 7fae b83c 1e27 8c3c

conv1_bn.running_mean f4 [8]
0.013115925 -0.09822385 0.0846013 -0.020561676 -0.10839489 0.00866648 0.028848795 0.23053522
00000000: 2de4 563c 9629 c9bd 7243 ad3d f670 a8bc
00000010: 24fe ddbd dafd 0d3c 4f54 ec3c 6d11 6c3e

conv1_bn.running_var f4 [8]
0.33389306 0.85019857 2.0842502 0.76263165 0.13925135 0.22098374 0.37912986 0.37831026
00000000: 08f4 aa3e 9da6 593f 5b64 0540 d43b 433f
00000010: e897 0e3e 9049 623e 4f1d c23e e2b1 c13e

conv2.weight f4 [16, 8, 3, 3]
0.020799162 0.024244297 0.0068767727 -0.023069903 -0.054094918 -0.0006195528 -0.069066465 -0.05605114
-0.20417933 -0.061443143 -0.21850379 -0.039473575 0.035977036 -0.0014266693 -0.021229032 -0.04288212
0.07941576 0.01623316 -0.088184625 0.09142636 0.1328012 0.10977707 0.066053376 0.10182734
0.0140698515 0.020090556 -0.040876772 -0.37948745 -0.58096945 -0.5601593 -0.3299057 -0.30312294
-0.22400635 -0.1356128 0.10068627 -0.21223298 0.07430868 0.14948165 0.16164567 0.040497247
0.07473558 0.23668666 0.032639157 0.10753506 0.105791524 -0.17170966 -0.34663877 -0.0043111835
-0.09401229 -0.06950844 0.23979825 -0.24662988 0.12614799 0.042583894 0.02646369 0.048926514
0.053631004 6.872324e-05 -0.10610628 0.027720142 -0.081158236 0.004744185 -0.0063236617 0.07118701
-0.026039476 0.10530918 0.15992676 0.020205637 -0.08042703 0.11607601 0.10989615 0.050069936
0.30214694 0.05376648 0.15254764 0.37966445 0.2146056 0.23409313 0.22786546 0.21691656
0.22436032 0.05993025 -0.059672024 -0.058423053 -0.003599827 -0.15768531 -0.107285745 -0.00166264
-0.10604052 -0.04262263 -0.060877282 0.08059096 0.2712824 -0.036873896 -0.08144246 0.22071052
0.04710247 -0.15201941 -0.10172009 0.03358504 0.20072909 0.18871683 0.3220457 0.21302523
-0.03714136 -0.063853264 -0.33648652 -0.34007528 0.042682327 -0.027422385 -0.07158455 0.001163494
-0.071842134 0.029277671 0.054137304 0.03849768 0.075572304 -0.03383803 0.11437794 0.090922356
-0.029806687 0.17339736 -0.019707948 -0.13230377 -0.27167094 -0.20452233 0.1577262 0.21956654
-0.046913885 -0.0149619095 0.01604291 -0.03318071 -0.058775295 0.010184849 0.070597075 0.12997873
-0.010184793 0.24591969 0.24655348 0.35286185 0.35253447 0.1631143 -0.06502888 -0.13986036
-0.06997074 -0.10933119 -0.04595234 -0.12730294 -0.05464916 -0.14024933 -0.20939231 -0.067693785
-0.14847209 0.10519716 0.28763476 0.19966727 0.013642254 0.28626722 0.54373074 0.24702789
0.25851452 0.59360725 0.10605221 0.15236229 -0.17141454 0.060696457 0.00036479984 -0.066612795
0.06376774 0.050958965 0.022919351 0.2794473 -0.13868567 0.16652454 0.36668366 -0.1827911
-0.05950078 0.16878311 -0.11166011 -0.043478325 0.04276683 -0.10680386 -0.11143644 0.120608196
0.058682088 -0.12958424 0.1519758 0.027986694 -0.12306517 0.1679677 -0.17965376 0.04406934
0.19143273 -0.19241443 -0.028880998 0.126499 0.064475134 -0.06867947 -0.0738539 -0.09620195
0.022889221 -0.039282873 -0.03071312 -0.13355687 0.15385689 0.25094324 0.22682397 -0.018733341
0.11292988 0.14205569 0.053404804 -0.010302629 0.14042485 0.10817461 -0.065957606 -0.19602205
0.08728419 -0.05165869 -0.0030069097 -0.27723175 -0.11609623 0.13027887 -0.24641202 0.041118793
0.0058327247 0.031204557 0.040013876 -0.05730283 -0.076411985 -0.006779514 0.019743882 -0.018647445
0.07583532 0.04858612 0.19505511 0.03113397 0.0061565633 0.3774343 -0.045209885 -0.4965164
0.5206298 -0.049844127 -0.38855895 0.08859449 0.08208549 0.060595997 0.12478655 -0.030778209
-0.07460251 0.091418676 0.062114388 -0.050701007 0.027932568 -0.05264444 -0.04544255 -0.11532561
00000000: 0163 aa3c fa9b c63c 8d56 e13b 18fd bcbc
00000010: a292 5dbd 7c69 22ba b872 8dbd e195 65bd
00000020: 6314 51be ceab 7bbd 75bf 5fbe 0baf 21bd
00000030: a85c 133d 14ff baba 82e8 adbc 29a5 2fbd
00000040: bba4 a23d 67fb 843c 249a b4bd be3d bb3d
00000050: 0afd 073e cdd2 e03d fe46 873d da8a d03d
00000060: 3c85 663c f394 a43c 676e 27bd 2e4c c2be
00000070: 6aba 14bf 9a66 0fbf 66e9 a8be ee32 9bbe
00000080: ec61 65be 15de 0abe 9a34 ce3d 9a53 59be
00000090: 262f 983d b811 193e 7186 253e 71e0 253d
000000a0: f80e 993d fd5d 723e a3b0 053d 573b dc3d
000000b0: 3aa9 d83d a8d4 2fbe a37a b1be d444 8dbb
000000c0: 8489 c0bd 715a 8ebd ac8d 753e 8b8c 7cbe
000000d0: f02c 013e 736c 2e3d 61ca d83c 2b67 483d
000000e0: 2fac 5b3d 821f 9038 404e d9bd 5a15 e33c
000000f0: 4a36 a6bd 1c75 9b3b b836 cfbb 7fca 913d
00000100: bd50 d5bc 57ac d73d d7c3 233e 4b86 a53c
00000110: edb6 a4bd 42b9 ed3d 3c11 e13d 2216 4d3d
00000120: 01b3 9a3e 3e3a 5c3d 7335 1c3e 6163 c23e
00000130: 92c1 5b3e 1cb6 6f3e 9055 693e 601f 5e3e
00000140: b6be 653e 6c79 753d a76a 74bd 034d 6fbd
00000150: 13eb 6bbb 4278 21be a1b8 dbbd f1ec d9ba
00000160: c62b d9bd 1195 2ebd 755a 79bd e00c a53d
00000170: 87e5 8a3e 1509 17bd 4ecb a6bd f001 623e
00000180: 85ee 403d faaa 1bbe 9f52 d0bd 7890 093d
00000190: ed8b 4d3e fc3e 413e 2de3 a43e 4923 5a3e
000001a0: 8a21 18bd 80c5 82bd f647 acbe 591e aebe
000001b0: aad3 2e3d e9a4 e0bc ec9a 92bd 6180 983a
000001c0: f821 93bd bad7 ef3c 14bf 5d3d beaf 1d3d
000001d0: a7c5 9a3d bf99 0abd fb3e ea3d 8035 ba3d
000001e0: 272d f4bc 148f 313e 9072 a1bc a47a 07be
000001f0: 7418 8bbe 4d6e 51be fa82 213e 0dd6 603e
00000200: c628 40bd cc22 75bc 6c6c 833c 7fe8 07bd
00000210: 5dbe 70bd 5ade 263c 3395 903d 2519 053e
00000220: 1ede 26bc 5fd2 7b3e 8478 7c3e 4faa b43e
00000230: 667f b43e 6f07 273e dd2d 85bd 8e37 0fbe
00000240: d24c 8fbd 08e9 dfbd 8538 3cbd b45b 02be
00000250: ccd7 5fbd 859d 0fbe f06a 56be 0aa3 8abd
00000260: 1109 18be 9c71 d73d dd44 933e 9475 4c3e
00000270: c383 5f3c 9e91 923e f031 0b3f e1f4 7c3e
00000280: 045c 843e a5f6 173f e731 d93d dc04 1c3e
00000290: 4b87 2fbe d99c 783d 9b42 bf39 4a6c 88bd
000002a0: a998 823d 59ba 503d 5dc1 bb3c b713 8f3e
000002b0: 9e03 0ebe 6985 2a3e f6bd bb3e 972d 3bbe
000002c0: 17b7 73bd 7bd5 2c3e 0eae e4bd 5416 32bd
000002d0: 462c 2f3d fbbb dabd ca38 e4bd 6e01 f73d
000002e0: a15c 703d bbb1 04be 8b9f 1b3e 5a44 e53c
000002f0: 9809 fcbd baff 2b3e 28f7 37be 0d82 343d
00000300: f106 443e 4a08 45be d897 ecbc f488 013e
00000310: 8a0b 843d d2a7 8cbd b740 97bd 8705 c5bd
00000320: 2d82 bb3c 14e7 20bd 159a fbbc 22c3 08be
00000330: a98c 1d3e a27b 803e 8b44 683e aa76 99bc
00000340: c847 e73d 0c77 113e ffbe 5a3d 5ccc 28bc
00000350: 88cb 0f3e a68a dd3d c814 87bd 01ba 48be
00000360: 0ec2 b23d 1098 53bd 930f 45bb 52f1 8dbe
00000370: dcc3 edbd d367 053e 6f53 7cbe 2e6c 283d
00000380: 7120 bf3b b3a0 ff3c 97e5 233d 5fb6 6abd
00000390: e37d 9cbd af26 debb ecbd a13c 87c2 98bc
000003a0: 8c4f 9b3d 3d02 473d 87bc 473e ab0c ff3c
000003b0: ffbc c93b 123f c13e 002e 39bd 6637 febe
000003c0: ff47 053f 5b29 4cbd 33f1 c6be 0771 b53d
000003d0: 701c a83d 8233 783d 1790 ff3d 9522 fcbc
000003e0: 33c9 98bd b739 bb3d a86b 7e3d dcab 4fbd
000003f0: d7d2 e43c b2a1 57bd f821 3abd d52f ecbd

conv2.bias f4 [16]
0.10307619 0.09318323 0.005139823 0.1327903 0.11075449 0.11262762 -0.14539291 0.035596732
0.10950549 0.2370004 -0.016724396 0.26143193 0.047770917 -0.19726643 0.04024067 0.025703775
00000000: 9c19 d33d d9d6 be3d f66b a83b 2efa 073e
00000010: 40d3 e23d 4fa9 e63d e1e1 14be e1cd 113d
00000020: 6a44 e03d 3cb0 723e 9a01 89bc 68da 853e
00000030: 70ab 433d 3600 4abe 67d3 243d b990 d23c

conv2_bn.weight f4 [16]
0.5341403 0.3769932 0.43989047 0.45014068 0.41969538 0.64134437 0.4165539 0.7689129
0.61789083 0.68434083 0.3945054 0.26532444 0.3479659 0.8737726 0.27926552 0.39234146
00000000: 6bbd 083f 4105 c13e 5339 e13e d778 e63e
00000010: 50e2 d63e 252f 243f 8e46 d53e 7ad7 443f
00000020: 182e 1e3f f630 2f3f 9dfc c93e 9bd8 873e
00000030: 9628 b23e 90af 5f3f e4fb 8e3e fbe0 c83e

conv2_bn.bias f4 [16]
0.07660858 0.33045056 0.38681093 -0.22423752 0.075478725 -0.24896508 -0.24817336 0.23083206
-0.3399879 -0.05900867 0.062189486 0.19914041 0.080133796 -0.4095831 0.15359569 0.102443874
00000000: f6e4 9c3d d130 a93e 150c c63e 859e 65be
00000010: 9794 9a3d b4f0 7ebe 2821 7ebe 3d5f 6c3e
00000020: e512 aebe 13b3 71bd 67ba 7e3d 77eb 4b3e
00000030: 301d a43d e0b4 d1be 3048 1d3e 18ce d13d

conv2_bn.running_mean f4 [16]
-0.5513235 1.162211 0.9273415 -0.23196545 -0.71601474 -0.53380793 -0.17973389 -1.0731925
-0.20056401 -0.15688927 1.3118387 -1.1676023 1.4366068 -1.8041453 0.5186471 -1.9151084
00000000: 8923 0dbf 54c3 943f 4166 6d3f 5a88 6dbe
00000010: be4c 37bf a3a7 08bf 290c 38be 5f5e 89bf
00000020: a760 4dbe 95a7 20be 55ea a73f fe73 95bf
00000030: bbe2 b73f 3cee e6bf 0ec6 043f 4622 f5bf

conv2_bn.running_var f4 [16]
1.5501456 0.45523554 0.7880653 0.45268723 1.0970132 0.65411925 0.58185333 2.0284786
0.2915447 1.0344679 0.8759196 0.63269365 0.75573754 1.3635902 0.43042216 1.0153582
00000000: 2c6b c63f a214 e93e a6be 493f 9fc6 e73e
00000010: ee6a 8c3f 5c74 273f 57f4 143f 98d2 0140
00000020: 5945 953e 7269 843f 443c 603f 36f8 213f
00000030: 0478 413f 208a ae3f 4b60 dc3e 42f7 813f

conv3.weight f4 [32, 16, 3, 3]
0.08326898 0.023640228 0.13706762 0.10373694 0.06031059 0.19183609 -0.16529548 -0.30241233
-0.2193289 -0.026297342 -0.16826746 -0.09892175 -0.06070198 -0.19906543 0.075649776 0.12255531
-0.0927396 -0.027999006 0.15492946 0.028799523 0.08308994 0.01740967 0.038397677 -0.054609884
-0.15103178 0.10738391 0.13410358 0.10203067 0.07785258 0.050152116 -0.052978802 -0.062447537
-0.0069593536 -0.16112775 -0.36402792 -0.49049777 -0.13430691 0.05666317 -0.09400579 -0.104628734
-0.27007085 0.02797004 0.10745784 -0.24744503 0.10331805 -0.065520614 0.0011194239 0.05013036
0.14196777 0.020021599 -0.1301578 -0.3428844 -0.17055336 0.077557065 -0.12760505 0.023819434
-0.11276951 0.050389476 0.029913854 -0.032146003 0.008867432 0.031890936 -0.14566423 -0.04873269
0.05912348 0.067206904 0.15435487 0.108351156 0.19042031 0.060134236 -0.1723133 -0.03097381
0.048295584 0.060989454 0.032815 0.0037896393 -0.25390235 -0.0611462 0.1796666 -0.38614318
0.008839917 0.099060684 -0.012035276 0.07043153 -0.11196603 -0.10153926 0.002455171 -0.30795747
-0.15300658 -0.19931866 -0.14437 -0.014695261 0.07678036 -0.30479133 -0.18702964 0.21966183
-0.10934092 0.04873144 -0.06272835 -0.17682406 0.17054178 -0.061815567 0.0015682419 -0.20394155
0.14945833 -0.18987192 -0.048365925 0.1495003 -0.060532503 -0.16162328 0.031947974 -0.15091483
-0.06414956 -0.0015047918 -0.31285748 0.11144949 -0.17037272 -0.17983438 -0.0044133784 -0.08854711
-0.05267853 -0.24602388 -0.10638698 0.23144387 -0.75257117 0.39369535 -0.12755501 -0.0792315
0.013212367 -0.25953442 -0.030669222 0.07290322 -0.064954594 -0.0999155 0.1292772 0.031768043
-0.2508598 -0.08796739 -0.07332508 0.030673848 -0.11316604 -0.28148296 0.05050446 -0.27778608
-0.21857023 0.21924554 -0.07614085 -0.0824072 0.3691902 0.36372694 -0.45933926 0.1014551
0.12508193 -0.18256696 0.3363822 0.015639264 -0.16626379 0.087415315 -0.032917466 -0.21905874
0.068624035 -0.12222998 -0.16031022 -0.038248867 0.18299831 -0.20257376 0.1379114 0.049754445
-0.15529357 0.13916883 -0.0043886756 0.01900437 -0.034018394 0.09656018 -0.08470953 -0.14149536
-0.23212343 -0.045361362 -0.12694876 0.08557207 0.18715204 0.13566059 -0.019766875 -0.022141056
-0.10248867 -0.067620754 0.22721586 -0.13760744 0.099462606 -0.08786169 -0.09314356 0.11624125
-0.09225546 -0.10169656 -0.097338565 -0.006046713 -0.025780797 -0.07105344 -0.08244182 0.05067478
0.057542708 -0.1879118 0.026862541 -0.13385893 -0.2804805 0.22956213 -0.06930772 -0.08724734
0.037791032 -0.08304078 -0.18536876 -0.13031897 -0.23477305 -0.13741417 -0.059697684 -0.13473691
-0.18725803 0.030471006 0.012805508 -0.18598256 0.01753705 0.045131255 -0.11603114 0.052514315
0.19785231 0.047152847 -0.07180412 -0.23637716 0.007836258 -0.05787097 -0.1252383 0.1920865
-0.014915482 0.048590615 0.13082998 0.25141203 -0.097993284 -0.21110426 0.08366221 0.019202836
-0.0033617376 0.018574039 0.065395676 -0.16246161 0.10950923 0.25608614 -0.011368607 0.050546244
0.23188482 0.0033220837 0.07105887 0.15899922 0.020493688 -0.028247064 -0.25001904 0.06613933
00000000: ed88 aa3d 27a9 c13c 745b 0c3e 0874 d43d
00000010: 3d08 773d ae70 443e 3843 29be cad5 9abe
00000020: c197 60be 866d d7bc 4e4e 2cbe 7d97 cabd
00000030: a4a2 78bd cfd7 4bbe 45ee 9a3d 47fe fa3d
00000040: 42ee bdbd 2c5e e5bc d4a5 1e3e faec eb3c
00000050: 0f2b aa3d b99e 8e3c e246 1d3d 9dae 5fbd
00000060: 13a8 1abe 18ec db3d 7352 093e 75f5 d03d
00000070: 2c71 9f3d 4e6c 4d3d 4d00 59bd fdc8 7fbd
00000080: 4a0b e4bb acfe 24be de61 babe 8622 fbbe
00000090: c087 09be a417 683d 1c86 c0bd 9747 d6bd
000000a0: ba46 8abe 6d21 e53c db12 dc3d 3b62 7dbe
000000b0: 6a98 d33d ac2f 86bd a2b9 923a 7e55 4d3d
000000c0: 0060 113e 5604 a43c 1648 05be 8b8e afbe
000000d0: 8aa5 2ebe 3dd6 9e3d e6aa 02be f920 c33c
000000e0: b3f3 e6bd 3265 4e3d e60d f53c 87ab 03bd
000000f0: b548 113c 12a0 023d 0129 15be ee9b 47bd
00000100: 762b 723d c6a3 893d 340f 1e3e 36e7 dd3d
00000110: 8bfd 423e 514f 763d e672 30be cabc fdbc
00000120: 97d1 453d 14d0 793d 0569 063d 995b 783b
00000130: 7dff 81be 7074 7abd 85fa 373e 8fb4 c5be
00000140: 4dd5 103c 54e0 ca3d 9b2f 45bc 683e 903d
00000150: 724e e5bd d1f3 cfbd efe6 203b 9aac 9dbe
00000160: c2ad 1cbe 311a 4cbe bbd5 13be 64c4 70bc
00000170: 053f 9d3d 9c0d 9cbe b384 3fbe 08ef 603e
00000180: 22ee dfbd 9e9a 473d b977 80bd 5e11 35be
00000190: 81a2 2e3e 5232 7dbd 778d cd3a 0ed6 50be
000001a0: 9b0b 193e c96d 42be 591b 46bd 9b16 193e
000001b0: eef0 77bd 9380 25be e1db 023d 6b89 1abe
000001c0: d860 83bd 6f3c c5ba db2e a0be a13f e43d
000001d0: 3076 2ebe 8126 38be 1a9e 90bb 3058 b5bd
000001e0: 71c5 57bd afed 7bbe 6be1 d9bd 9fff 6c3e
000001f0: 81a8 40bf 7092 c93e c89d 02be 2044 a2bd
00000200: af78 583c b2e1 84be 053e fbbc 494e 953d
00000210: ea06 85bd 7fa0 ccbd 3e61 043e 351f 023d
00000220: b270 80be 3f28 b4bd 762b 96bd b947 fb3c
00000230: 99c3 e7bd 891e 90be c4dd 4e3d fa39 8ebe
00000240: e0d0 5fbe e781 603e bcef 9bbd 1bc5 a8bd
00000250: 7f06 bd3e 6b3a ba3e 842e ebbe b1c7 cf3d
00000260: 7a15 003e d5f2 3abe 4a3a ac3e ea1d 803c
00000270: 0e41 2abe cd06 b33d 77d4 06bd ef50 60be
00000280: c28a 8c3d b653 fabd 5d28 24be d8aa 1cbd
00000290: e963 3b3e 7f6f 4fbe a538 0d3e 51cb 4b3d
000002a0: 4705 1fbe 4682 0e3e e1ce 8fbb 0daf 9b3c
000002b0: df56 0bbd 58c1 c53d 317c adbd 29e4 10be
000002c0: c4b1 6dbe d6cc 39bd dbfe 01be 6940 af3d
000002d0: c9a4 3f3e 9cea 0a3e 24ee a1bc 2961 b5bc
000002e0: 94e5 d1bd c07c 8abd 46ab 683e f7e8 0cbe
000002f0: 0db3 cb3d d4f0 b3bd 0dc2 bebd e40f ee3d
00000300: 6ef0 bcbd 4946 d0bd 7159 c7bd 8123 c6bb
00000310: 4032 d3bc 7784 91bd 42d7 a8bd 5c90 4f3d
00000320: e7b1 6b3d f36b 40be d50e dc3c 5112 09be
00000330: 249b 8fbe 5612 6b3e 35f1 8dbd bcae b2bd
00000340: c5ca 1a3d 4911 aabd 4fd1 3dbe 5672 05be
00000350: 5968 70be 4db6 0cbe 8f85 74bd 79f8 09be
00000360: 92c0 3fbe 559e f93c 32ce 513c 3672 3ebe
00000370: dca9 8f3c 8ddb 383d bca1 edbd 4019 573d
00000380: cc99 4a3e 5823 413d 0a0e 93bd db0c 72be
00000390: a663 003c 1c0a 6dbd 783e 00be 53b2 443e
000003a0: 1160 74bc f406 473d 4bf8 053e 14b9 803e
000003b0: b4b0 c8bd b72b 58be 1857 ab3d 444f 9d3c
000003c0: 9950 5cbb 9528 983c 2bee 853d 565c 26be
000003d0: 6046 e03d b91d 833e 6543 3abc 9409 4f3d
000003e0: 3773 6d3e 51b7 593b 5087 913d b1d0 223e
000003f0: 61e2 a73c 6366 e7bc 7f02 80be 0f74 873d

conv3.bias f4 [32]
0.11494029 -0.031207092 -0.18954915 0.18043867 -0.09719467 -0.002863903 0.10709899 0.016070554
-0.07877483 -0.0562518 0.11936101 -0.04781286 -0.002677087 0.00066422275 0.1265056 -0.022149058
-0.14650017 0.051833186 0.12048564 0.12679823 -0.15478578 0.0689426 -0.09642131 -0.026847022
0.026563082 0.08040346 -0.14945468 0.13088697 -0.03915559 -0.094104715 0.0021691103 0.0030769377
00000000: d165 eb3d 04a6 ffbc 2c19 42be eac4 383e
00000010: 000e c7bd 52b0 3bbb b756 db3d 65a6 833c
00000020: b354 a1bd 4a68 66bd 8c73 f43d 6bd7 43bd
00000030: 1172 2fbb 3c1f 2e3a af8a 013e f171 b5bc
00000040: 2404 16be 094f 543d 2dc1 f63d 65d7 013e
00000050: 2a80 1ebe c731 8d3d 8978 c5bd 49ee dbbc
00000060: d29a d93c 92aa a43d a60a 19be 3c07 063e
00000070: 9d61 20bd f9b9 c0bd a227 0e3b 73a6 493b

conv3_bn.weight f4 [32]
0.5965145 0.80179405 0.6899013 0.9485814 1.0040805 0.6163289 0.49157426 0.8608709
0.8232131 0.6359973 0.7682383 0.70728976 0.63792783 0.7979567 0.5889315 0.9692503
1.0336863 0.5370088 0.7631833 0.61501855 0.88358855 0.7210785 0.86639 0.6659897
0.8487987 0.7015188 0.9054919 0.6349132 0.69892514 0.56450236 0.5848034 0.4724399
00000000: 2db5 183f 6042 4d3f 5f9d 303f 3bd6 723f
00000010: b685 803f bbc7 1d3f 9faf fb3e 0962 5c3f
00000020: 18be 523f b8d0 223f 44ab 443f f110 353f
00000030: 3d4f 233f e446 4c3f 37c4 163f ca20 783f
00000040: d54f 843f 6979 093f fb5f 433f db71 1d3f
00000050: dc32 623f 9a98 383f bccb 5d3f 4d7e 2a3f
00000060: df4a 593f bc96 333f 51ce 673f ac89 223f
00000070: c2ec 323f 3a83 103f adb5 153f a4e3 f13e

conv3_bn.bias f4 [32]
-0.46345553 -0.23460828 -0.22660905 -0.043974016 -0.09378333 -0.3060078 -0.048904985 -0.21914034
-0.006820498 -0.09768099 -0.24197611 0.04147062 -0.1879915 -0.07657334 -0.052317373 -0.28130323
-0.29880142 -0.14435199 -0.053026784 -0.046743352 -0.17677607 -0.26535237 0.14121288 -0.30169293
-0.17086002 0.19791344 -0.34109062 -0.10710529 -0.3620116 -0.2158183 -0.08499065 0.08582991
00000000: 0b4a edbe 273d 70be 340c 68be 191e 34bd
00000010: 7911 c0bd 0ead 9cbe 9850 48bd 5366 60be
00000020: 7c7e dfbb f90c c8bd 96c8 77be 19dd 293d
00000030: d880 40be 7cd2 9cbd be4a 56bd fa06 90be
00000040: 80fc 98be 02d1 13be 9d32 59bd f575 3fbd
00000050: c904 35be 44dc 87be 1c9a 103e 7f77 9abe
00000060: eef5 2ebe d2a9 4a3e 6ea3 aebe 055a dbbd
00000070: 9659 b9be 79ff 5cbe 940f aebd 98c7 af3d

conv3_bn.running_mean f4 [32]
-1.3428946 -0.9244431 -1.5198163 -0.6847771 -3.2039568 -1.028897 -1.0900668 -1.6116694
-1.5577804 -2.4284694 -2.6625924 -1.4776598 -1.2330898 -1.1292398 -0.30172256 -1.4196209
-2.3385668 -1.5887402 0.033657506 -0.5032196 -2.3880587 -2.1480675 0.23137106 -1.7463189
-1.4538713 0.8058169 -2.0816684 -1.1362264 -1.940058 -1.0587627 0.5859572 -0.8821076
00000000: f8e3 abbf 4ea8 6cbf 5789 c2bf 8d4d 2fbf
00000010: a10d 4dc0 e6b2 83bf 4f87 8bbf 2f4b cebf
00000020: 5965 c7bf 0b6c 1bc0 ea67 2ac0 f523 bdbf
00000030: e3d5 9dbf ee8a 90bf 617b 9abe 23b6 b5bf
00000040: 14ab 15c0 d75b cbbf 74dc 093d 00d3 00bf
00000050: f4d5 18c0 f079 09c0 89ec 6c3e 6187 dfbf
00000060: 7418 babf 044a 4e3f 0e3a 05c0 de6f 91bf
00000070: d253 f8bf 8985 87bf 4b01 163f ced1 61bf

conv3_bn.running_var f4 [32]
0.6709473 1.3096355 0.36995542 0.7015882 2.4530554 2.0538917 1.2982695 1.3046001
2.7540355 1.0526458 1.918602 1.8534626 0.94154716 0.87270325 1.0031725 2.45523
0.83860004 1.4178545 1.9055016 0.97450274 1.3858738 1.0507376 2.470409 0.884253
1.0158445 0.43893006 2.6095998 0.8044451 0.82731014 0.95475584 1.4259855 1.2114521
00000000: 34c3 2b3f 23a2 a73f cc6a bd3e 499b 333f
00000010: dcfe 1c40 f672 0340 b22d a63f 23fd a63f
00000020: 1e42 3040 19bd 863f c094 f53f 433e ed3f
00000030: 3c09 713f 7b69 5f3f f567 803f 7d22 1d40
00000040: 7eae 563f 427c b53f 7ae7 f33f 0379 793f
00000050: 5064 b13f 927e 863f 2e1b 1e40 685e 623f
00000060: 3107 823f 71bb e03e af03 2740 1df0 4d3f
00000070: 99ca 533f e16a 743f b186 b63f dd10 9b3f

fc1.weight f4 [64, 128]
-0.13001232 0.034328565 -0.28815553 -0.33839235 -0.15272796 -0.13975877 -0.07529724 -0.024678387
0.44125336 0.27217174 0.032342203 -0.07956773 -0.020040585 0.029665736 -0.06656375 -0.0093890065
-0.10450562 -0.07939716 -0.27225712 -0.24882588 -0.0751288 -0.18909672 0.13291563 0.072844625
0.40683678 0.2730839 0.30763936 0.21627699 0.05647183 0.07190029 -0.09751059 -0.2939568
-0.04212196 -0.012429498 -0.15767927 -0.012890574 -0.07402574 -0.13671052 0.24059212 0.12130209
-0.0453006 0.04874317 0.0011706096 -0.13462818 0.07197409 -0.066565506 0.037914317 -0.021733558
0.17427969 0.095525734 -0.41478446 -0.26103124 -0.030001536 0.13573438 0.14106545 0.19197528
-0.19886212 -0.1457479 0.013244613 -0.0057459916 -0.16259024 0.005587915 0.13634552 0.16753362
0.08411753 -0.015813746 -0.103221826 -0.14810772 0.011133079 0.0041423035 0.3014954 0.2572676
-0.29050815 -0.27986288 -0.012553975 -0.028499419 -0.5437889 -0.38703525 -0.13541923 -0.24702449
-0.21000677 -0.3564242 -0.2964583 -0.2908875 -0.22632524 -0.26579463 -0.24437694 -0.4529884
-0.37741736 -0.34656575 0.04587683 0.030482776 -0.19936503 -0.14794512 0.14078996 0.085446045
-0.059400994 -0.20394295 -0.012481034 -0.08337243 -0.008486874 -0.019677203 -0.013004831 0.015134457
0.06409894 -0.009372066 0.22376536 0.116794296 0.26599553 0.16460577 0.0949811 -0.010861149
0.123288296 0.050450854 0.08451534 0.046745207 -0.35629907 -0.25147116 -0.25374958 -0.3174757
0.0044337884 -0.14980488 -0.020185957 0.06330557 -0.095722675 -0.014608185 0.031712778 -0.14395812
0.04902316 -0.07787442 0.22096273 0.12423263 -0.11534157 -0.1630858 -0.054077357 -0.009592562
0.08839167 -0.16302605 -0.019378128 0.0070063835 -0.14170112 0.0034196926 -0.11862293 -0.0914006
-0.008118323 -0.12544991 -0.04519181 -0.011667706 -0.06811928 -0.0026253636 0.105796695 0.10204427
0.12231388 0.03700765 -0.050205518 6.413637e-05 -0.11860418 0.05448295 -0.08778223 -0.12137578
0.08214024 0.041788913 0.08086599 -0.0481653 0.0026359998 -0.212797 -0.032488532 -0.07761688
-0.13055536 0.107022226 -0.034902494 0.22839622 0.024176184 -0.009465355 -0.2921409 -0.000681754
0.33498985 0.2577245 0.43148637 0.2928689 -0.16910279 0.14834996 -0.16976285 -0.01267566
0.15921234 0.02020714 0.15519315 0.21523587 -0.02185075 -0.09370701 0.2572728 0.06934594
0.23733304 -0.07725413 -0.053156734 -0.10016636 0.022645304 0.16803414 0.23019305 0.19509873
-0.16281693 -0.115235634 0.010693821 -0.22687793 -0.23598933 -0.06454608 -0.16584763 -0.257023
-0.104332805 -0.25814876 0.036258988 0.008237604 -0.002112797 -0.09913677 0.16068758 0.13640991
0.071616456 -0.008050166 0.03856114 -0.065876454 -0.23485512 -0.09468389 -0.31781095 -0.27776793
-0.025479017 -0.07812445 -0.05340069 0.029935664 -0.1276147 -0.084102646 -0.13410425 -0.16576779
-0.012363569 0.002009029 -0.08529016 0.05728094 -0.20774224 -0.28013793 -0.107432 -0.4122637
0.2550212 0.12171952 0.08431869 -0.019412229 -0.11869215 -0.072549745 0.02195014 0.11599846
0.08489865 -0.002967167 -0.031749997 -0.29081923 0.22081408 0.38495955 0.22316553 0.28351983
00000000: f321 05be 1c9c 0c3d 1f89 93be c341 adbe
00000010: b864 1cbe ec1c 0fbe 7035 9abd 542a cabc
00000020: f6eb e13e 185a 8b3e 4279 043d 68f4 a2bd
00000030: 272c a4bc 8f05 f33c 9352 88bd 59d4 19bc
00000040: 0b07 d6bd fa9a a2bd 4965 8bbe 36cc 7ebe
00000050: 21dd 99bd 92a2 41be 091b 083e 902f 953d
00000060: e94c d03e a7d1 8b3e e882 9d3e b777 5d3e
00000070: 014f 673d 7640 933d a2b3 c7bd 8181 96be
00000080: 1488 2cbd 18a5 4bbc ad76 21be fc32 53bc
00000090: cf9a 97bd d8fd 0bbe c85d 763e 3b6d f83d
000000a0: 1f8d 39bd eba6 473d 246f 993a f8db 09be
000000b0: 2767 933d 7f53 88bd 0b4c 1b3d 930a b2bc
000000c0: 6076 323e ffa2 c33d a15e d4be e3a5 85be
000000d0: c8c5 f5bc f4fd 0a3e 7673 103e 2b95 443e
000000e0: 83a2 4bbe f03e 15be efff 583c df48 bcbb
000000f0: 0e7e 26be d41a b73b 299e 0b3e ef8d 2b3e
00000100: d045 ac3d d48b 81bc f765 d3bd 8da9 17be
00000110: 8567 363c 29bc 873b 9b5d 9a3e 94b8 833e
00000120: 7cbd 94be 304a 8fbe 30af 4dbc 9d77 e9bc
00000130: c035 0bbf 7c29 c6be 57ab 0abe fdf3 7cbe
00000140: 040c 57be 3c7d b6be 62c9 97be 35ef 94be
00000150: cec1 67be 3c16 88be f33d 7abe 18ee e7be
00000160: d93c c1be 1171 b1be 58e9 3b3d 04b7 f93c
00000170: 5926 4cbe ed7e 17be 3e2b 103e 56fe ae3d
00000180: 754e 73bd 6cd6 50be 407d 4cbc 2abf aabd
00000190: 880c 0bbc 1632 a1bc 3712 55bc 83f6 773c
000001a0: 4e46 833d 4b8d 19bc bf22 653e d931 ef3d
000001b0: 9130 883e 6a8e 283e 7385 c23d f6f2 31bc
000001c0: 937e fc3d 8ea5 4e3d 6116 ad3d e777 3f3d
000001d0: d56c b6be d4c0 80be 77eb 81be 2d8c a2be
000001e0: 5049 913b 7366 19be 055d a5bc 5aa6 813d
000001f0: 400a c4bd 2b57 6fbc 42e5 013d c269 13be
00000200: 82cc 483d a07c 9fbd 0e44 623e ad6d fe3d
00000210: 3338 ecbd f7ff 26be 3880 5dbd 1f2a 1dbc
00000220: b106 b53d 4df0 26be e1be 9ebc ce95 e53b
00000230: 191a 11be ec1c 603b 94f0 f2bd 3d30 bbbd
00000240: b702 05bc f175 00be 0c1b 39bd e829 3fbc
00000250: 1f82 8bbd 4b0e 2cbb f0ab d83d 96fc d03d
00000260: b37f fa3d 5595 173d 4da4 4dbd f480 8638
00000270: c0e6 f2bd 8429 5f3d 2bc7 b3bd dd93 f8bd
00000280: 2439 a83d da2a 2b3d 119d a53d fa48 45bd
00000290: bdc0 2c3b 75e7 59be b212 05bd 99f5 9ebd
000002a0: 4eb0 05be 782e db3d ebf5 0ebd b3e0 693e
000002b0: 220d c63c 9414 1bbc 7e93 95be bdb7 32ba
000002c0: ca83 ab3e 77f4 833e c8eb dc3e eaf2 953e
000002d0: 4829 2dbe 0de9 173e 50d6 2dbe 92ad 4fbc
000002e0: 8f08 233e 7289 a53c f4ea 1e3e cb66 5c3e
000002f0: 5800 b3bc 76e9 bfbd 43b9 833e 3f05 8e3d
00000300: 6f07 733e 6a37 9ebd e0ba 59bd 0524 cdbd
00000310: a582 b93c 2411 2c3e bab7 6b3e f6c7 473e
00000320: 7bb9 26be a900 ecbd 2335 2f3c b052 68be
00000330: 30a7 71be bc30 84bd f6d3 29be 8598 83be
00000340: 70ac d5bd 132c 84be 4e84 143d 04f7 063c
00000350: da76 0abb 3808 cbbd 498b 243e 0aaf 0b3e
00000360: a6ab 923d d8e4 03bc 49f2 1d3d 3cea 86bd
00000370: dc7d 70be a1e9 c1bd 1eb8 a2be 9937 8ebe
00000380: 5fb9 d0bc b6ff 9fbd afba 5abd a33b f53c
00000390: 6ead 02be 023e acbd a052 09be 08bf 29be
000003a0: 9190 4abc eaa9 033b 9bac aebd 6b9f 6a3d
000003b0: 62ba 54be 3d6e 8fbe 4f05 dcbd 3a14 d3be
000003c0: 2492 823e 1548 f93d 47af ac3d 6506 9fbc
000003d0: df14 f3bd f694 94bd c8d0 b33c 9a90 ed3d
000003e0: 58df ad3d cd74 42bb 490c 02bd 42e6 94be
000003f0: 161d 623e 6b19 c53e 8185 643e 8329 913e

fc1.bias f4 [64]
0.16672426 -0.085898235 0.15262535 -0.0156165995 -0.25645635 0.1425456 0.11220984 -0.2385848
0.0066236146 -0.09002571 -0.085442916 0.02499049 -0.08591303 0.07958099 0.24652848 -0.097039476
-0.12250594 0.07490516 0.46919748 -0.065959305 0.06329548 0.17801483 0.040318113 0.08151013
0.2469602 -0.041696195 0.20257711 0.29869705 -0.13629939 0.24850117 -0.41803536 0.29708657
0.11234568 -0.01844586 -0.09226488 -0.02470962 0.085945874 0.038365055 -0.0870908 0.22328116
-0.2390173 0.13767721 -0.07804432 -0.12930131 0.079321384 0.06598927 0.22503598 0.083157524
-0.22283071 0.126113 -0.26915103 -0.119301565 -0.19922584 0.17970558 0.2052826 -0.11106285
-0.009060148 -0.04752311 0.09808629 -0.01797263 0.10738384 -0.051244594 -0.021150082 0.0935525
00000000: c4b9 2a3e 6aeb afbd d249 1c3e c4dc 7fbc
00000010: 3f4e 83be 79f7 113e 46ce e53d 934f 74be
00000020: e80a d93b 665f b8bd b2fc aebd dbb8 cc3c
00000030: 2cf3 afbd 5cfb a23d f671 7c3e a2bc c6bd
00000040: 65e4 fabd e067 993d a73a f03e ac15 87bd
00000050: 10a1 813d 8549 363e 9b24 253d c8ee a63d
00000060: 22e3 7c3e a1c9 2abd 6070 4f3e d2ee 983e
00000070: 1192 0bbe 1777 7e3e bb08 d6be bb1b 983e
00000080: 7e15 e63d c61b 97bc 5ff5 bcbd d46b cabc
00000090: 6404 b03d ad24 1d3d a95c b2bd d1a3 643e
000000a0: f3c0 74be 41fb 0c3e b3d5 9fbd 9067 04be
000000b0: 4073 a23d 6225 873d d56f 663e 7e4e aa3d
000000c0: bc2d 64be c423 013e 2ace 89be 6154 f4bd
000000d0: dc01 4cbe bd04 383e 9a35 523e eb74 e3bd
000000e0: 0471 14bc 98a7 42bd 77e1 c83d 563b 93bc
000000f0: 0fec db3d dae5 51bd f042 adbc 7498 bf3d

fc2.weight f4 [10, 64]
0.015162921 0.20852856 -0.030080492 -0.19429334 0.029946148 -0.012722738 0.18609554 -0.26854652
0.31050572 0.16766542 0.19270931 0.003508319 -0.060693257 0.19951785 0.23134246 -0.36705726
-0.3577148 -0.39955524 0.027546905 -0.029221147 -0.09871735 -0.059777685 0.057611305 0.4453847
-0.11124267 0.07584943 0.29949257 -0.042731773 -0.43436858 -0.18155366 -0.44753715 0.05264133
-0.2056972 0.06207453 0.10114575 0.087423906 -0.04686624 0.19608672 -0.18238407 -0.21849471
0.25430465 0.04728988 0.22494525 0.05204254 -0.21351412 0.14001504 -0.053849686 0.12382635
-0.34718874 0.29416993 -0.42267466 0.3271736 0.16974777 -0.5396553 0.3579845 -0.21818537
-0.3520413 0.1345801 -0.28981933 0.06794313 0.29566652 0.28597647 -0.535366 -0.06622716
0.028403096 0.07412569 0.2702763 0.037383948 0.16659191 -0.27809918 0.14225818 -0.057082463
-0.47175577 0.2821268 -0.045477927 0.052976623 0.082483426 0.03671527 -0.38852164 -0.41030237
0.1942627 0.28187412 0.07925801 0.80879563 0.3751187 0.23467647 -0.43702123 -0.4385459
-0.48101866 0.030395273 -0.35169676 -0.22219256 0.1964449 -0.15491351 0.049693353 -0.3528659
-0.31867412 0.40841696 0.10220856 -0.5609489 0.26742786 0.012573295 0.0733244 0.08388888
-0.37366903 0.2948949 -0.029272424 -0.36988696 0.13340834 0.08029093 -0.6263567 0.20073631
0.044951767 -0.2505416 -0.47987366 -0.29815358 0.08102805 -0.27836582 0.19450139 -0.3469233
-0.06781119 0.112136535 -0.19043745 -0.067711115 -0.49398842 0.43748203 -0.5433096 0.38847476
-0.41420662 0.097718276 -0.17453636 0.13386843 0.1389364 -0.036741965 -0.14564641 -0.19978821
0.3061173 0.105050564 0.1874416 -0.07727982 -0.002776932 0.15199097 -0.0736441 0.112748794
-0.036130015 0.25303024 -0.41817352 0.07545784 -0.34822902 -0.28496724 0.15765977 -0.0021015266
-0.13290727 -0.01776885 -0.41791135 0.010690739 0.0015726637 -0.42288384 0.28537017 -0.21524628
-0.15642367 0.04833509 -0.085491724 0.15186977 -0.37793636 0.037324753 0.059775848 -0.23156473
0.4937856 -0.42830688 0.18319808 -0.07126041 -0.42991418 -0.03492849 0.06524802 -0.0112708155
0.15576026 0.12996347 0.30554882 0.19923611 0.11369005 0.20447607 -0.12593341 0.16699116
0.18198007 0.11094972 -0.28937668 -0.021479914 0.17671415 0.45354113 -0.28582686 -0.09672513
0.026929844 -0.076893754 -0.3626905 0.014368596 -0.3926689 0.35099205 -0.07254152 -0.00025133215
0.10755776 -0.05073398 -0.093740664 0.02757966 -0.08405516 0.22606824 0.17633848 0.06663942
-0.27608573 -0.032135405 0.08544557 0.0021740864 -0.17770931 -0.16393727 0.03484981 -0.33096966
0.360877 -0.37434068 -0.20349206 -0.166996 -0.09519139 -0.0034792176 0.054340146 0.12496671
0.35002965 -0.50337523 0.006431478 -0.060465697 0.18163939 -0.14320107 -0.0638158 -0.098529264
-0.22416839 -0.18234119 -0.36297598 -0.113068946 0.22958776 -0.0628737 -0.022292634 0.0256924
0.027435757 -0.07202697 -0.047607124 0.03346591 -0.14120643 -0.19169246 -0.25514543 0.1007039
0.18943734 0.05830517 0.3723029 0.037559193 0.19419578 -0.07036476 -0.09634109 0.14434475
00000000: e66d 783c 8388 553e 5d6b f6bc d5f4 46be
00000010: a051 f53c 0873 50bc d48f 3e3e ee7e 89be
00000020: 9bfa 9e3e 7cb0 2b3e 9755 453e d3eb 653b
00000030: 7e99 78bd 684e 4c3e 0ae5 6c3e eeee bbbe
00000040: 6526 b7be 8192 ccbe 0caa e13c 3061 efbc
00000050: 522c cabd 72d9 74bd d5f9 6b3d 7709 e43e
00000060: 32d3 e3bd f256 9b3d 1757 993e 8307 2fbd
00000070: 8f65 debe 34e9 39be 9723 e5be 6f9e 573d
00000080: 49a2 52be dd41 7e3d 8125 cf3d 4e0b b33d
00000090: d1f6 3fbd f5ca 483e e4c2 3abe 14bd 5fbe
000000a0: 3834 823e 09b3 413d 0c58 663e 8f2a 553d
000000b0: 72a3 5abe 1a60 0f3e 7d91 5cbd ab98 fd3d
000000c0: b9c2 b1be 719d 963e d068 d8be 4c83 a73e
000000d0: 5cd2 2d3e da26 0abf bf49 b73e fc6b 5fbe
000000e0: c23e b4be 5ecf 093e 3363 94be c525 8b3d
000000f0: 9a61 973e 826b 923e bf0d 09bf 1ba2 87bd
00000100: 9cad e83c 36cf 973d a861 8a3e e91f 193d
00000110: 1297 2a3e 0463 8ebe 21ac 113e 4dcf 69bd
00000120: f989 f1be ed72 903e 1047 3abd 04fe 583d
00000130: 12ed a83d c062 163d 4fec c6be 2713 d2be
00000140: cdec 463e ce51 903e 0652 a23d 3b0d 4f3f
00000150: 8f0f c03e 074f 703e 3fc1 dfbe 1789 e0be
00000160: 1448 f6be 82ff f83c 9911 b4be 7286 63be
00000170: da28 493e a6a1 1ebe 428b 4b3d d7aa b4be
00000180: 4129 a3be 071c d13e b952 d13d 599a 0fbf
00000190: 4eec 883e 3900 4e3c 1a2b 963d efcd ab3d
000001a0: 8c51 bfbe 77fc 963e b9cc efbc d361 bdbe
000001b0: 329c 083e 926f a43d ea58 20bf d28d 4d3e
000001c0: 581f 383d fd46 80be 00b2 f5be 96a7 98be
000001d0: 09f2 a53d f785 8ebe 5f2b 473e ee9f b1be
000001e0: 98e0 8abd d7a7 e53d 0902 43be 20ac 8abd
000001f0: 0dec fcbe a5fd df3e 5716 0bbf 2ae6 c63e
00000200: e412 d4be 8520 c83d a9b9 32be ce14 093e
00000210: 5845 0e3e be7e 16bd 5524 15be 4895 4cbe
00000220: 68bb 9c3e c024 d73d b1f0 3f3e e244 9ebd
00000230: 30fd 35bb 85a3 1b3e b8d2 96bd d7e8 e63d
00000240: 11fd 13bd 2e8d 813e d71a d6be a489 9a3d
00000250: 134b b2be 3ae7 91be 9071 213e c4b9 09bb
00000260: d818 08be fb8f 91bc 7af8 d5be 3628 2f3c
00000270: d621 ce3a 3b84 d8be 0a1c 923e 8569 5cbe
00000280: 872d 20be 04fb 453d 4916 afbd c083 1b3e
00000290: e080 c1be d7e1 183d 85d7 743d 4e1f 6dbe
000002a0: 77d1 fc3e 0a4b dbbe 4798 3b3e faf0 91bd
000002b0: b61d dcbe 2d11 0fbd c1a0 853d 3aa9 38bc
000002c0: 9e7f 1f3e 2515 053e e570 9c3e 8d04 4c3e
000002d0: 54d6 e83d 2d62 513e b0f4 00be bbff 2a3e
000002e0: fc58 3a3e 9b39 e33d 2e29 94be a5f6 afbc
000002f0: 8ef4 343e 8b36 e83e e657 92be d317 c6bd
00000300: fa9b dc3c 797a 9dbd 92b2 b9be 426a 6b3c
00000310: e60b c9be 3bb5 b33e a690 94bd 3bc5 83b9
00000320: 3e47 dc3d 6fce 4fbd 1bfb bfbd bdee e13c
00000330: 1d25 acbd 6f7e 673e 1392 343e 407a 883d
00000340: 1c5b 8dbe 6aa0 03bd 16fe ae3d 1e7b 0e3b
00000350: 6ef9 35be 2cdf 27be adbe 0e3d db74 a9be
00000360: dfc4 b83e 95a9 bfbe 3960 50be 0001 2bbe
00000370: b4f3 c2bd 9603 64bb c693 5e3d 8cee ff3d
00000380: 1637 b33e 33dd 00bf 26bf d23b e1aa 77bd
00000390: adff 393e 4da3 12be dcb1 82bd b6c9 c9bd
000003a0: 668c 65be a6b7 3abe fdd7 b9be b190 e7bd
000003b0: 0e19 6b3e edc3 80bd 0b9f b6bc de78 d23c
000003c0: f4c0 e03c e082 93bd b0ff 42bd 8d13 093d
000003d0: 6b98 10be 074b 44be 6ca2 82be d93d ce3d
000003e0: ddfb 413e 67d1 6e3d 7c9e be3e abd7 193d
000003f0: 42db 463e 661b 90bd 7a4e c5bd 1ccf 133e

fc2.bias f4 [10]
0.22387525 -0.062092114 -0.42379877 0.18475105 -0.095824 0.13235243 -0.06673999 -0.19808841
-0.14098805 0.2500882
00000000: 8e3f 653e 4d54 7ebd 27fc d8be 612f 3d3e
00000010: 603f c4bd 6587 073e faae 88bd b0d7 4abe
00000020: 2c5f 10be 900b 803e
