exp_cifar/models/cifar_tiny_resnet18_cifar10_hint_optimized_cifar10.model (torch_old, 63910 bytes, 22 tensors)

conv1.weight f4 [8, 3, 3, 3]
00000000: 5463 763d dbff 063e 865e 3ebd 5895 68be
00000010: 2614 4cbe 9b36 49be cb52 073d e799 933e
00000020: f1c8 453e 08bd 0f3a f50c 773e caeb 543c
00000030: e54e 81be c252 0fbe 8f4e 86be b69f 633e
00000040: 6f36 d53d 4647 6e3d 1829 3a3e bffa 2b3c
00000050: bea8 d33d 847a 1ebe 8aad 2bbe c3a7 8bbd
00000060: ed74 b73c 224d 8f3b c08e 8b3d adc6 08be
00000070: 4067 8f3e fc65 333b c283 a6bd c91c cdbe
00000080: 9280 603e f7d8 463e 76cf 1abd 76a1 87bd
00000090: af43 01be 18e0 df3d f213 80bd 56e3 24bb
000000a0: 71a8 8bbe 7b0d 0f3e 9c96 5c3e 44fe a63c
000000b0: 2fe1 bbbd 6f9a 2fbe b1bb 243e 25ef 1d3e
000000c0: fedc 533d 619a c5be 4e2c 5d3e d452 403e
000000d0: 83d4 c7bd 135a 29be 970b 3abe 5105 553e
000000e0: c79c f63d 2b4b 093e 0953 7a3d 6335 483d
000000f0: 3fc3 12bc 540b a7bc bc0f 1d3e d364 5dbe
00000100: 2fb9 b73d 3fb0 f1bd 412c 8abd 00d0 01be
00000110: 0ba7 e63a 5ccc 3f3d a6dc 96bc 3c28 6bbe
00000120: 1f6a adbd 386c 133f 4466 823e e725 ad3e
00000130: b12e 793e 2bb0 b53e 993c 7f3e e6c5 cf3d
00000140: b9df 85bd 6ed8 0bbd abaf 1fbb fe92 9d3d
00000150: 9cb2 d33c 6fd7 f33d 25bb 86bd 3cb2 f63c
00000160: 189a e33d 8d01 1a3e 261c 6b3e dcdf 033d
00000170: 2c41 b93c d7cd 8e3d 3c58 963e 10d7 233e
00000180: bfb2 703e 2de1 26bd d0f1 683e 17d2 86be
00000190: 9dec 3abd 32d4 14be 4061 85be 2944 d6bb
000001a0: 8882 aabe 79b9 2dbe dafb 09be a1ca 3bbe
000001b0: f120 e7bc 2f44 733e 9073 3fbe 1782 503e
000001c0: 7a8a 96be 1005 d53c c996 cebc 1f77 70bd
000001d0: 9d32 853d 4448 0ebe b2eb 913e 5740 fbbd
000001e0: 33f9 633e 1eef 24be b313 59bb 7ead cabd
000001f0: 8966 e7bd 41f5 653e e2aa b6bd 941d 773e
00000200: 0a24 4dbe 8530 f23d fca1 6cbe 737a 983c
00000210: 45b7 623b 291b 20be 39cc 123e ab58 dcbd
00000220: 2d56 ff3c 3681 f0bc f312 2c3e 93df 3b3e
00000230: 4023 903e ba0a 60bd fe1b e83e b67a 153e
00000240: 7069 2ebd a027 98bd bb08 abbd caac 43be
00000250: 0f5a 89be ec36 14be 8c56 24be 36c7 a7be
00000260: 9d57 d5bd 454d d63d 704f a73d c499 b73d
00000270: 9d98 893d 0a67 4f3d 2113 04be 8944 473e
00000280: 60de 4abe 033e a6bd 7cd2 6ebd 07af 413e
00000290: af62 e4bd e039 a4bd 7975 1f3e fc30 efbd
000002a0: 3ac0 08be 6e70 5c3e c3d7 8cbd 334f c4bd
000002b0: 6c1c 223e 71e2 80bd 5172 41be 59bb 9c3e
000002c0: 7363 e8bd 23b8 c2bd 847a 893e 57ad 27be
000002d0: 2f6a 02be d0d1 2a3e 1991 61bd ed7a 0bbe
000002e0: 1943 9a3e 8c61 2abe 1feb b7bd e76f 473e
000002f0: 2f34 c4bd 6dd6 813e 0311 38be c9a4 67be
00000300: 8d2e 94bd 0b90 b73e 409c 1c3e 1d37 3dbe
00000310: 1645 2abd f09e 00bc 82c2 83bd afa2 ae3d
00000320: d018 113d dcb7 1c3d 5b56 e03e 0c33 053d
00000330: 74c7 23be 0933 b8be cad4 05be 9594 3b3e
00000340: 7415 28be 6390 f43c 0f2c b9bc 145b db3d
00000350: c310 a83d d694 2bbb 41df c7bd 16ac 96bd
0.06015332 0.13183539 -0.046476863 -0.2271322 -0.19929561 -0.19649737 0.033037942 0.28828356
0.19314934 0.0005483185 0.24126036 0.01299567 -0.25255504 -0.13996413 -0.2623181 0.22228894
0.10410773 0.05817344 0.18179739 0.010496794 0.103349194 -0.15476424 -0.16765419 -0.068191074
0.022394622 0.0043732086 0.06814337 -0.13357039 0.2800846 0.002737402 -0.081305996 -0.40061024
0.21924046 0.19418703 -0.037795506 -0.06622593 -0.12623475 0.10931414 -0.06253804 -0.0025159917
-0.27276948 0.13969986 0.21541828 0.020384915 -0.0917381 -0.17148755 0.16087224 0.15423258
0.051724426 -0.38594344 0.21598932 0.18781596 -0.0975733 -0.16538267 -0.18168484 0.2080281
0.12041622 0.1340758 0.061114345 0.04887904 -0.008957683 -0.020391144 0.15338033 -0.21620493
0.08970868 -0.118011944 -0.06746722 -0.12677002 0.001759739 0.04682575 -0.01841576 -0.22964567
-0.084675066 0.57587004 0.25468647 0.3381798 0.24334218 0.35485968 0.2492546 0.10145168
-0.06536812 -0.03414195 -0.002436618 0.07694052 0.025842004 0.11906325 -0.06578664 0.030114286
0.111133754 0.15039654 0.22959957 0.03219591 0.022614084 0.069728546 0.29364192 0.16000009
0.23505686 -0.040742088 0.22748494 -0.2633216 -0.04563581 -0.14534071 -0.26050758 -0.006538887
-0.33302712 -0.16965283 -0.1347498 -0.18339016 -0.02821395 0.23756479 -0.18696427 0.20362125
-0.29402524 0.02600339 -0.025218384 -0.058707353 0.06503794 -0.13894755 0.28500134 -0.12268131
0.2226303 -0.16106841 -0.0033123314 -0.09896372 -0.11298854 0.22456838 -0.08919312 0.24132377
-0.20033279 0.118256606 -0.23108667 0.018613076 0.00345941 -0.15635361 0.14335717 -0.107590996
0.031169022 -0.029358488 0.16804104 0.18347006 0.28151894 -0.05469773 0.45333856 0.14597592
-0.04258102 -0.07429433 -0.083512746 -0.19108883 -0.26826522 -0.14474076 -0.1604864 -0.32769173
-0.104171015 0.10463957 0.081694484 0.08964875 0.06718562 0.050635375 -0.12897922 0.19459738
-0.19811392 -0.081172965 -0.058306202 0.18914424 -0.11151635 -0.08018851 0.15572156 -0.11679265
-0.13354579 0.21527264 -0.06877091 -0.095854186 0.15831155 -0.0629319 -0.18891264 0.30611685
-0.113470934 -0.095077775 0.26851285 -0.16374718 -0.12735818 0.166816 -0.055070017 -0.13621111
0.30129316 -0.16638774 -0.08980393 0.19476281 -0.09580266 0.25358906 -0.1797524 -0.22621454
-0.07235441 0.35852084 0.1529398 -0.18478055 -0.04156979 -0.007850394 -0.06433584 0.08527123
0.035424054 0.03826128 0.43815884 0.032519385 -0.15994054 -0.35976437 -0.13069454 0.18318398
-0.16414434 0.029854005 -0.022604017 0.10710731 0.08206322 -0.0026181242 -0.09759379 -0.073570415

conv1.bias f4 [8]
00000000: cf0a 84bd e606 ddb8 aa1d 6c3e 8ced 9bbc
00000010: 7631 45be 2176 fcbd bd8c 98bc 9775 a73d
-0.06447374 -0.00010539386 0.23058191 -0.01903417 -0.19257149 -0.12327219 -0.018621797 0.08176725

conv1_bn.weight f4 [8]
00000000: 47b9 e23e 1782 fb3e 73ee 2a3f d136 e83e
00000010: 696f f63e 2870 053f 4f1e 353f a36c cb3e
0.4428198 0.49122688 0.66770095 0.45354322 0.48131874 0.5212426 0.7074937 0.3973132

conv1_bn.bias f4 [8]
00000000: 480f dfba d2bc 8bbd b366 523f 6ff0 cd3e
00000010: 670a 9b3e 7b4d c23e 4937 0b3c 520f a4bc
-0.0017018104 -0.06823124 0.82187957 0.402225 0.30281374 0.37949738 0.008497068 -0.020026837

conv1_bn.running_mean f4 [8]
00000000: ac5d a1bd 81da 9b3c 6367 44bd beb6 a0bd
00000010: 3748 34be bcdb b0bd 8a55 b0bb c32c c53d
-0.078791946 0.01902509 -0.04795016 -0.07847355 -0.17605673 -0.08635661 -0.005381291 0.09627678

conv1_bn.running_var f4 [8]
00000000: b2b6 9c3e cddf 2e3e 73c9 5040 542c fd3e
00000010: 737c 9a3d 7780 573e 970d b63e 0b99 983e
0.30608135 0.1707756 3.2622955 0.49447882 0.07543268 0.21045099 0.35557243 0.29804263

conv2.weight f4 [16, 8, 3, 3]
00000000: c632 8d3d ae79 573d a45a ff3c d290 c3bc
00000010: 4666 89bd 8fce c1bc 58f8 1ebd c361 ebbc
00000020: 956a 2fbe b9b5 dcbc 0e8c 3abe 376d 8f3b
00000030: 462c 1a3d 1ff1 3b3c cae4 373c 54b9 edbc
00000040: bef8 8d3d 90c3 8a3c 319f 63bd 3c15 f53d
00000050: 8a1a 343e edf8 0a3e effb ac3d ace9 fa3d
00000060: d1c7 0c3d 1b81 bd3c 91f9 51bd a098 afbe
00000070: 9909 15bf 5b4a 0bbf b9a8 8ebe dcf4 97be
00000080: 7b63 61be 8f6d 87bd 7f48 0e3e 9536 43be
00000090: 9ca7 da3c 981e e53d 6cd7 d03d acb4 bd3a
000000a0: e025 223d ee64 413e ebd4 d63c 16e5 d93d
000000b0: 6548 8f3d a3c8 61be 1827 d0be 3bd1 38bd
000000c0: 6f12 dcbd 3f1c 96bd 3141 813e ff3e 73be
000000d0: 5d56 213e 7927 8e3d 0ab9 b9bc 2653 07bc
000000e0: 9990 873c 5e2d c7bc e8c1 16be a213 aebb
000000f0: a064 94bd a704 69bc 3de5 0dbd 015e 973d
00000100: 61b6 f0bc 99fc d03d 1fa5 283e 68dc 1a3d
00000110: 23c3 5ebd 1511 c93d ba56 a73d 333c df3b
00000120: d9da 8a3e c2ea de3c e62e f83d bf4b bc3e
00000130: 1121 3e3e 62eb 563e 62ee 2a3e 1c5d 323e
00000140: dd94 4b3e a87b a33c d19f babd 4b6c adbd
00000150: eb7e 49bc 59a3 1abe be30 dbbd 0aea 16bd
00000160: 190c 05be 05df 87bd ca77 63bd 0223 9a3d
00000170: 9d55 923e 3f86 dbbc bf58 acbd 11e9 683e
00000180: fc62 7d3d d398 27be 8e57 e6bd e37c babb
00000190: 5cc4 263e 5dcf 213e 06b9 953e a493 313e
000001a0: 5e62 9cbd 2ace d2bd 082c c9be 78c1 c7be
000001b0: 4197 1a3d 1fc7 8abc cdd8 88bd b71a 36bc
000001c0: 61d5 2dbd bae7 313d a0fe 463d e6bc 8a3d
000001d0: 96ba c23d c594 4dbd 41a9 fa3d c85d c63d
000001e0: 6c7e 37bd 0f3b 363e 1a7c 90bc 4d57 16be
000001f0: 5e3d 8abe 9f7f 52be 0f9b c43d b805 093e
00000200: cde3 9fbd 926a 8abd a46b 7abd c8bf 9abd
00000210: 16a5 babd 1f2e 67bd 5e5b 153d 2fb5 0d3e
00000220: 50da 943c 154c 813e a55f 593e 6efd b83e
00000230: 6f3f b33e d3d2 2b3e b028 6cbd a0d9 02be
00000240: d1a2 a1bd 1580 b2bd 7364 18bd ceb0 30be
00000250: 8fba 8cbd 7149 32be 743e 75be 554d c7bd
00000260: d168 3fbe 73e3 5d3d 5baa 893e 11b8 313e
00000270: d9cf 69bd a7a2 7e3e 062e 0f3f e9bd 553e
00000280: e2bd 3a3e 65ee 113f aa3f d93d ee15 153e
00000290: f095 46be c876 733d 98ea d1bb e704 b8bd
000002a0: 722f 603d 2d68 313d 15b0 2dbb c1e1 813e
000002b0: b4df 24be 0790 243e 660b ab3e d66f 5bbe
000002c0: 827e 96bd d459 ef3d a79d 2cbe af67 aabd
000002d0: 56d6 813d 62ea b1bd a05e e3bd 5ff6 243e
000002e0: e2a2 953d 10c4 fcbd f82e 263e e681 423d
000002f0: 6a96 cdbd 9bd1 1f3e 7f1e 32be ac09 1c3d
00000300: 512b 223e b6af 63be 1f86 54bd d88b b93d
00000310: 764d c73b bec1 debd 64ed 96bd 63cc a3bd
00000320: 5374 3a3d 1fad b4bc 4a11 963c 46af d7bd
00000330: 291a 373e cbe0 a53e 5c83 7a3e 8208 48bd
00000340: 62a5 ea3d ba3f 1c3e 5199 d53b 3a5e 7fbd
00000350: 1db5 ee3d 7f0e f43d 44f6 95bd b7da 3fbe
00000360: 1723 a63d b28d 82bd 5084 2dbc 549e 63be
00000370: c0b7 b5bd 379a 243e 6a20 4ebe b5da b13d
00000380: fb6d 8e3d 57f1 ad3b caa0 d13c a979 a3bd
00000390: 5e36 85bd ef23 00bd 7d51 43bd 55e9 a9bc
000003a0: 77f5 533c 06bd e0bc 86eb 1a3e fce7 58bb
000003b0: 5984 55bc 083b b13e e499 a5bd 26c3 07bf
000003c0: da95 f73e b613 cabd 0f27 e0be ff19 a13d
000003d0: 2898 7a3d 339f db3c 7d94 003e 7e2a 47bd
000003e0: 2c56 f2bd dde0 a03d 3bba 083d 9b3f c2bd
000003f0: 0669 613d ebb2 b7bc 60be 11bd d2a1 bebd
0.0689445 0.052606277 0.03117115 -0.023872767 -0.0670896 -0.023658065 -0.038811058 -0.02873314
-0.17130502 -0.02694212 -0.18217489 0.004377033 0.03763988 0.011471062 0.011223981 -0.029019035
0.069322094 0.016938955 -0.05557174 0.11966941 0.17588249 0.1357152 0.0844649 0.122516006
0.034370247 0.023132851 -0.051263396 -0.3429613 -0.5821777 -0.5441033 -0.278631 -0.29679
-0.22010605 -0.066126935 0.13894843 -0.1906379 0.02669125 0.11187476 0.101973385 0.00144734
0.0395869 0.18886158 0.026224574 0.10639398 0.0699623 -0.22049193 -0.40654826 -0.045121413
-0.107457034 -0.07329606 0.2524505 -0.237545 0.15755601 0.069411226 -0.022671241 -0.00825957
0.016548442 -0.024313625 -0.14722407 -0.005312399 -0.07245755 -0.014222301 -0.034642447 0.07390977
-0.02938384 0.10204429 0.16469239 0.037807852 -0.054385316 0.09817711 0.08170839 0.006812596
0.27120093 0.02721155 0.1211832 0.3677654 0.18567301 0.20988229 0.16692498 0.17418331
0.19881006 0.019956425 -0.09112514 -0.08467921 -0.012298326 -0.15101375 -0.10702656 -0.03684429
-0.12992896 -0.066343345 -0.05553416 0.075262085 0.28580943 -0.026797412 -0.084153645 0.22745158
0.061861977 -0.16366892 -0.112471685 -0.005691157 0.16285843 0.15801759 0.29242724 0.17341477
-0.076359496 -0.10293229 -0.39291406 -0.39014792 0.037741903 -0.016940651 -0.066819765 -0.011114768
-0.042439822 0.043433882 0.048582673 0.06774311 0.09508245 -0.050190706 0.12239314 0.09685856
-0.0447983 0.17795967 -0.017637301 -0.1468174 -0.26999944 -0.20556496 0.095998876 0.13381088
-0.078071214 -0.06758608 -0.06113781 -0.075561106 -0.09113519 -0.05644047 0.036464088 0.13838647
0.018170506 0.25253358 0.21227892 0.36130852 0.35009333 0.16779642 -0.05765599 -0.1277833
-0.07892383 -0.08715836 -0.03720517 -0.17254946 -0.06871521 -0.17410828 -0.23949605 -0.09731547
-0.18692328 0.05417199 0.26887783 0.17355372 -0.057082985 0.24866734 0.559296 0.20873226
0.18236497 0.57004386 0.10607846 0.14559147 -0.19393134 0.05943945 -0.0064061396 -0.0898531
0.054732747 0.04331224 -0.0026502658 0.2536755 -0.16100961 0.16070567 0.33407134 -0.21429381
-0.07348348 0.11687055 -0.16857015 -0.08320557 0.063397095 -0.08687283 -0.11102033 0.16109608
0.07306458 -0.123420835 0.16228855 0.047487162 -0.10038455 0.15607302 -0.17394446 0.03809516
0.15836836 -0.22234997 -0.05188572 0.09059876 0.006082232 -0.10876797 -0.073694974 -0.07997968
0.04552109 -0.022055207 0.018318791 -0.10531478 0.17881073 0.32398066 0.24464172 -0.04883624
0.114573255 0.15258685 0.006518521 -0.06234572 0.11655638 0.119168274 -0.07322362 -0.18735777
0.081121616 -0.063746825 -0.010590628 -0.22228366 -0.08872938 0.16074453 -0.20129552 0.08684293
0.06954571 0.005308311 0.025589366 -0.07982189 -0.0650451 -0.03128427 -0.047685135 -0.020741144
0.012936941 -0.027433883 0.15128908 -0.0033097258 -0.013032042 0.3461535 -0.08085993 -0.5303215
0.48356515 -0.09867041 -0.437798 0.078662865 0.061180264 0.02680931 0.12556644 -0.048624508
-0.11832842 0.07855389 0.03338073 -0.09484788 0.0550318 -0.022424182 -0.035581946 -0.093082085

conv2.bias f4 [16]
00000000: fdea d23d 1925 e13d 59de d93b 9fda 0d3e
00000010: 189f 093e b1b7 e93d 188a 16be 54c0 293d
00000020: 48af e93d 7d30 863e 74a5 dbbc b609 7c3e
00000030: 07ee 613d 6c8a 53be ebe5 e83c c64b f73c
0.10298727 0.10993404 0.0066488204 0.13852929 0.13439596 0.114119895 -0.14701116 0.041443184
0.11410385 0.2620887 -0.026812293 0.2461308 0.05515864 -0.20658273 0.028429946 0.030187499

conv2_bn.weight f4 [16]
00000000: a9c2 1a3f 80ff d03e 958e b43e cb6d f23e
00000010: 3b49 be3e 8d06 263f 4665 043f 3f39 2b3f
00000020: b95a 2a3f 8488 2a3f 6698 d13e 9a7a 8c3e
00000030: f811 9f3e 3691 673f 8eb9 973e 2338 ce3e
0.6045328 0.4081993 0.3526503 0.4734939 0.37165245 0.64853746 0.5171703 0.66884226
0.6654468 0.66614556 0.40936583 0.27437288 0.31068397 0.9045595 0.29633754 0.40277204

conv2_bn.bias f4 [16]
00000000: d900 423d 6edc d33e 450c be3e 689d 5abe
00000010: 7a26 563d 4301 7fbe d905 53be 076c d63d
00000020: cf6e b8be 22e7 b2bd 129c c73d b10e 3e3e
00000030: 255b 4a3d 0cf1 d5be c281 d43d 2810 0f3e
0.04736409 0.41379112 0.37118736 -0.21349108 0.052282788 -0.24902825 -0.206077 0.10469823
-0.3602204 -0.08735491 0.09746565 0.18560292 0.04940333 -0.41785467 0.10376312 0.13971007

conv2_bn.running_mean f4 [16]
00000000: bc96 0cbf d0d1 0a3f 06b0 4a3f c096 c5be
00000010: 124e 21bf d8fd 53bf 1100 f6be a35f dabf
00000020: 0405 90be a3f7 c0be 189a 483f 85a3 75bf
00000030: 4ca7 b43f 699f 20c0 25e4 7ebc c2f4 d1bf
-0.549175 0.542264 0.7917484 -0.38591576 -0.6300975 -0.8280921 -0.48046926 -1.7060436
-0.28128827 -0.37688932 0.7836013 -0.95952636 1.4113555 -2.5097296 -0.015557324 -1.6402819

conv2_bn.running_var f4 [16]
00000000: c60c 9a3f e8c3 cb3e 4bb4 b63e f61c 983e
00000010: 44a0 aa3e 1b83 d53e 9e32 0b3f ec74 963f
00000020: 8f74 c03e fca3 1a3f cfde a33e 14f1 803e
00000030: ea3d 113f edb4 733f 924a 9a3e 0e7b de3e
1.2035148 0.39797902 0.35684428 0.29709595 0.33325398 0.41701588 0.5437411 1.1754432
0.37588927 0.6040647 0.32005927 0.25183928 0.567351 0.95197946 0.30135018 0.43453258

conv3.weight f4 [32, 16, 3, 3]
00000000: 34e6 4d3d 80c3 6339 186d 023e 3f44 a13d
00000010: 5deb 593d 575d 433e 5e3f 63be 1562 b3be
00000020: 139a 80be 333a 123d f479 d5bd cac6 5fbd
00000030: 4865 d13c 4fd7 edbd 59a7 053e e7b8 043e
00000040: 4b08 b2bd 1f7b 3abd 3e7e 463e d692 8b3d
00000050: a8f5 de3d c4a2 643c 19c1 9b3c 6a2b a5bd
00000060: 6b71 31be bb9f 963d 7b87 c03d 22d9 ea3d
00000070: a7ec ce3d f927 b53d cce8 7bbd 92ab 85bd
00000080: 859a d73c d159 2ebe d3ec b6be bfe3 e7be
00000090: 0594 f2bd 054c 473d cb68 72bd 68a8 2cbd
000000a0: c026 64be f8f1 bb3d ccb4 1e3e 8c88 4dbe
000000b0: 3f36 1e3e 8821 b1bd 6169 83bb e1ba 2f3d
000000c0: 436a d53d 8a0c b73b b12e 0bbe 8752 b9be
000000d0: 851d 2fbe f5cc 923d 9f06 30bd 39c4 ac3d
000000e0: d85d 23bd 4666 e33d 020c a63d c4ec 243d
000000f0: a8b7 943d 92bd 083e 00f8 abbd 9f57 d1bd
00000100: 8b5a 393c 76ee e03c 0c50 923d 2c46 983a
00000110: 217c fe3d 7e52 b83c eb22 58be 0dce 32bd
00000120: c17e 02bd 9133 05bd f3cc 15bd 0816 013d
00000130: 82e9 6ebe 3161 19bd 0661 233e 621e dbbe
00000140: 2b12 f3bc afd7 0c3e df29 143c 555a bb3d
00000150: 268d 0abe f48a 0ebe 6cb5 04bd 8b07 94be
00000160: 6348 1abe 8c31 46be 1c0e 92bd 223f 173d
00000170: e515 193e 6e54 62be 04e7 d9bd a196 923e
00000180: ebcd 9abd 582e b33d c8a7 b8bd ec88 04be
00000190: d7e3 583e 1851 6cbb c1fd a13d ea4c f9bd
000001a0: 73c1 6f3e be83 2fbe 194d d0bc 45c5 4b3e
000001b0: b023 9c3c 304d 9cbd a93f b33d 708f 0fbe
000001c0: 2a54 0ebd 0aed 30bc 7f37 a5be c71c b43d
000001d0: 2c61 7bbe e32f a9bd a26c 4f3d 9998 92bc
000001e0: b7ac 903d 5850 07be 53d2 f83b d8c4 903e
000001f0: 0886 2fbf 4b74 f23e cbcd 93bd dbe2 18bd
00000200: 3ba3 383c 69cf 5bbe 44f1 dabc 5561 033d
00000210: 343f dbbd b4a3 19be 6868 693d a754 b53d
00000220: 9d65 4bbe 8570 75bd b8d8 c43c a639 053e
00000230: 76d7 3abd 97a5 54be 9e1f f13d 9699 7cbe
00000240: 0584 80be 9014 543e 533c c8bd 713b f2bd
00000250: 1ebc b83e 2d30 b73e 3f57 f4be ce76 f83d
00000260: fb4d 113e d1ba 46be 38fc a03e 435d d0bc
00000270: 1e44 27be 70bd bd3d 626c 57bd 9703 41be
00000280: 4ace a13d 83fc 07be 6fd8 9bbd 0a97 1cbc
00000290: bed4 633e 12e9 02be 96cc 4f3e 325a bb3d
000002a0: c3b9 94bd 9ea6 6d3e cb10 a83d b1d0 e13d
000002b0: 5869 283d ae96 2b3e 1056 58bd 6499 99bd
000002c0: 27b7 2bbe 17ee 64bd 8c33 b1bd 9efb 0f3e
000002d0: 1a35 3e3e 80c3 9a3d 4b06 b2bd 2fdb 0ebd
000002e0: 748f 38be fbca 0bbe 236e 803e 8a11 3abe
000002f0: be23 973d 2144 3cbd 185a c8bd 9a4d e73d
00000300: 00bf 37bd 476c 92bd 1648 9cbd 130e 0a3b
00000310: d67b ba3c 54d0 1dbd afec 05bd 48b5 c93d
00000320: 312f 9f3d 00e7 dbbd 956c cf3d d079 bdbd
00000330: da95 85be ab41 813e dc27 33bd 7bdb 2fbc
00000340: 0d24 eb3d 6e73 9ebc 08cb 2dbd a7c2 d03c
00000350: e812 d9bd 5a2f 97bd 0989 c53c 5418 b8bd
00000360: 1320 01be 4505 9b3d dec6 a53d 308c c5bd
00000370: 1786 9f3d 1780 063e 2c23 87bd 6c9a c13d
00000380: 2b62 7c3e 73f0 ff3d 4721 01bd 46c2 3abe
00000390: a92a d93d 7365 b53c 63b0 41bd c82d 993e
000003a0: 4271 a03d 0dc8 0c3e b7be 113e d40b 833e
000003b0: 81db 77bd 10fa 80be f872 6a3d 28ea a33c
000003c0: 19be 94bc 76d9 84bc fcd9 803c ba93 1cbe
000003d0: bbf9 d53d 79c7 793e 20ef 06bd b580 753b
000003e0: 946b 6b3e ba32 0f3d 9e69 6a3d 3644 403e
000003f0: bc6c 2f3d ee69 38bd 0aae 83be c232 a53d
0.050268367 0.00021721236 0.12736928 0.07874345 0.053202976 0.19078575 -0.22192141 -0.35035768
-0.2511755 0.035700034 -0.10423651 -0.05463294 0.02556099 -0.116133325 0.1305212 0.1296116
-0.08692988 -0.045527574 0.19384095 0.06815116 0.10886699 0.013954822 0.019012975 -0.08064921
-0.17328422 0.07354685 0.09400841 0.11467196 0.101037316 0.08845515 -0.06150131 -0.06526865
0.026318798 -0.1702645 -0.35727558 -0.45290944 -0.11844639 0.048656482 -0.05918197 -0.042152792
-0.22280407 0.09177011 0.15498656 -0.2007162 0.1545038 -0.08648974 -0.004010365 0.04290283
0.104206584 0.0055862116 -0.1359203 -0.36195776 -0.17101105 0.07167999 -0.042975064 0.08435864
-0.03988442 0.111034915 0.08107759 0.04026486 0.07261592 0.13353565 -0.083969116 -0.102217905
0.011313091 0.027457457 0.07144174 0.0011617593 0.124260195 0.022500273 -0.2110707 -0.043653537
-0.031859163 -0.03251988 -0.036572408 0.03151515 -0.23331264 -0.037446205 0.1595498 -0.42796618
-0.02967175 0.13754152 0.009043186 0.09148089 -0.13530406 -0.13920194 -0.03239958 -0.28912005
-0.15066676 -0.19354838 -0.071315974 0.036925443 0.14949758 -0.2210252 -0.10639766 0.28630546
-0.07558807 0.08749074 -0.09016377 -0.12942857 0.21180664 -0.0036059078 0.07909728 -0.12172873
0.23413639 -0.171401 -0.025427388 0.19899471 0.019059986 -0.0763191 0.087523766 -0.14019561
-0.034748234 -0.010798702 -0.32268903 0.08794551 -0.24548787 -0.08261087 0.05064071 -0.01789503
0.07064193 -0.13214242 0.007593432 0.2827518 -0.6856389 0.4735435 -0.07216986 -0.03732572
0.011269386 -0.2146584 -0.026726373 0.032075245 -0.107054144 -0.15003854 0.056984335 0.08854037
-0.19862981 -0.05992176 0.02402912 0.13010272 -0.045615636 -0.20766293 0.117736086 -0.24667963
-0.25100723 0.20710969 -0.09777131 -0.11827744 0.36081022 0.35778943 -0.47722813 0.12132035
0.14189903 -0.19407202 0.31442428 -0.025435096 -0.16334578 0.09264648 -0.052593596 -0.18849026
0.07900675 -0.1327992 -0.07609641 -0.009557495 0.22249123 -0.12784222 0.20292887 0.09148063
-0.07261994 0.2320809 0.08206328 0.11026133 0.04111609 0.16756698 -0.05281645 -0.0749996
-0.16769086 -0.055891123 -0.0865241 0.14060828 0.18574944 0.0755682 -0.086926065 -0.034877
-0.18023473 -0.1365165 0.25084028 -0.18170753 0.07379864 -0.04596341 -0.09782809 0.11294098
-0.044859886 -0.071495585 -0.07630937 0.0021065518 0.022764128 -0.038528755 -0.032696422 0.0984903
0.07772673 -0.10737419 0.10128132 -0.092517495 -0.2609089 0.25245413 -0.043739185 -0.010733481
0.114814855 -0.01934215 -0.042429954 0.025483442 -0.10599309 -0.073820785 0.024113195 -0.08989015
-0.12609892 0.075693645 0.080945715 -0.09645879 0.077892475 0.131348 -0.065985054 0.09453282
0.24646823 0.12497034 -0.031525876 -0.18238172 0.1060384 0.022143101 -0.047287356 0.2991774
0.07834102 0.13748188 0.14232908 0.25594962 -0.06051207 -0.25190783 0.05723855 0.020009115
-0.018157052 -0.016216975 0.015728943 -0.15290728 0.10448023 0.24392499 -0.03294289 0.0037460749
0.22990257 0.034960486 0.05722963 0.1877602 0.042828307 -0.045022897 -0.2571872 0.08066322

conv3.bias f4 [32]
00000000: 3cea ef3d b1ac ebbc bc40 38be 1a8e 353e
00000010: 9895 b8bd 9f80 aeb9 eb6b d73d c0a5 993c
00000020: 6624 a9bd 0ab2 4cbd 6237 df3d 957b 2abd
00000030: c305 89bc 49bb 633b fb81 083e 4fdb 12bd
00000040: 935f 12be c525 343d 1a4f f03d 3a18 e23d
00000050: e9ac 1abe ee6e 953d 1295 cbbd aba0 f1bc
00000060: 5d2d ae3c ecf4 9f3d f452 1ebe e258 073e
00000070: a648 2dbd 3c4a bbbd 0eca d539 003c 0cbc
0.117145985 -0.02876887 -0.17993444 0.17729989 -0.09012908 -0.00033283696 0.105186306 0.018755794
-0.082588956 -0.04997448 0.10899235 -0.041621763 -0.01672638 0.0034749082 0.13330834 -0.03585368
-0.14294271 0.043981332 0.117338374 0.11039777 -0.15105022 0.07296549 -0.09940542 -0.029495558
0.021261865 0.07810387 -0.15461332 0.132175 -0.04230561 -0.091450185 0.00040777068 -0.008559227

conv3_bn.weight f4 [32]
00000000: 9871 223f 25a2 373f 2073 323f d8a6 743f
00000010: 8ee1 793f 551e 1f3f 09e3 023f 808a 603f
00000020: c126 4f3f ce0d 233f d136 4b3f 82e3 2f3f
00000030: 16e6 193f c802 593f 9d56 083f 9cbf 703f
00000040: cd7e 8d3f 1d70 0e3f a7cb 363f 9a25 1d3f
00000050: 2e31 563f 212d 453f 6f56 573f 61ce 2b3f
00000060: e0eb 5a3f 56a8 3d3f 5d65 693f 422b 2b3f
00000070: 8fe0 403f ae21 193f 367b 163f 62f4 e23e
0.6345458 0.7173179 0.69706917 0.95567083 0.97609794 0.6215566 0.5112768 0.87711334
0.8091851 0.6369294 0.7938052 0.68706524 0.6011671 0.8476987 0.5325716 0.9404237
1.1054322 0.5563982 0.714045 0.613855 0.8366879 0.77021986 0.8411626 0.67111784
0.85516167 0.74084985 0.91170293 0.6686288 0.7534265 0.59817016 0.58781755 0.44327074

conv3_bn.bias f4 [32]
00000000: 7e55 f0be ecaf 92be b1df 97be 2520 d9bd
00000010: 41a2 53be 431e b6be 8578 8bbd 565b 94be
00000020: 79c4 8abd f974 96bd ed9e 69be 1cc1 78bd
00000030: 1814 9abe b394 b7bd f11c 16be 8aa8 9bbe
00000040: d55e 8ebe 9cf2 f8bd 6d5c 2ebe 944d 19be
00000050: b90f 93be c1cf 94be aec7 043e 559f acbe
00000060: 8699 1fbe 4082 8d3c bd44 b4be 7a93 90bd
00000070: b01f d6be 6aea 4bbe 759c 35be 4db6 ba3d
-0.46940225 -0.28649843 -0.2966285 -0.10601834 -0.20667364 -0.35569963 -0.06810097 -0.28975934
-0.067757554 -0.073465295 -0.22814532 -0.06073104 -0.30093455 -0.08963909 -0.14659478 -0.30402023
-0.27806726 -0.12155649 -0.17027445 -0.14971 -0.28722933 -0.29064754 0.12966797 -0.3371531
-0.15585908 0.017274022 -0.35208693 -0.07059379 -0.4182105 -0.1991364 -0.17735465 0.09116802

conv3_bn.running_mean f4 [32]
00000000: dcca 40bf f1af c73e 7aed 8dbf 4479 13bf
00000010: 829b 44c0 8400 10bf f2d9 0bbd bdd5 ecbf
00000020: f38e f9bf fcd8 0ac0 17f8 1bc0 0d7d ffbf
00000030: 6c7c 35bf a5de 80bf edee 623f 9d3d c5bf
00000040: b18f 2bc0 5a60 5cbf 7f83 413f c383 34be
00000050: d176 b1bf 6c86 fbbe bd11 023f 93a9 cdbf
00000060: 894b 99bf d0ff ccbe e9d7 f1bf 8751 dabf
00000070: e6ad 4dbf 595b 44bf 9104 04bd 40fe 91bd
-0.7530954 0.3900142 -1.1088097 -0.5760691 -3.0719914 -0.56250787 -0.034143396 -1.8502728
-1.949675 -2.1694937 -2.4370172 -1.9960037 -0.7089298 -1.0067946 0.8864582 -1.5409428
-2.6806452 -0.8608452 0.7559127 -0.17628388 -1.3864385 -0.49125993 0.50808316 -1.6067375
-1.1976177 -0.4003892 -1.8894016 -1.705613 -0.8034347 -0.76701885 -0.032230917 -0.071285725

conv3_bn.running_var f4 [32]
00000000: a1b6 573e eb23 1d3e 7be9 b43e 9b25 7c3e
00000010: 3476 2c3f 8004 783e d154 993e d141 093f
00000020: d931 f03e 61cf bf3e 7aab d53e d18b 0b3f
00000030: 28b1 f43e b050 eb3e 237b 8b3e e1c4 c03e
00000040: 4148 173f f622 c73e 4339 a83e e36f b73e
00000050: 9449 013f 0c99 b03e 3d36 e03e a04a 9b3e
00000060: 25a4 0a3f fde5 bb3e 2e21 d83e dd72 ac3e
00000070: bd26 f93e f881 8f3e fdc4 793e 4196 9d3e
0.21065761 0.15345733 0.3533438 0.2462372 0.67367864 0.24220467 0.29947522 0.5361605
0.4691303 0.37462905 0.4173239 0.5451022 0.4779141 0.45959997 0.27242383 0.37650207
0.59094626 0.3889386 0.32856187 0.3582755 0.50502896 0.34491765 0.4379138 0.30330372
0.54156715 0.36698905 0.42212814 0.33681384 0.48662367 0.28028846 0.24391551 0.30778697

fc1.weight f4 [64, 128]
00000000: 1fa2 ccbd 9de4 af3c fcf8 84be ebcf 9dbe
00000010: 01aa 4cbe 34a8 67be 556e dcbd 5de0 8cbd
00000020: a704 033f 94a6 ba3e 3579 0c3e b556 333d
00000030: eac2 05bd f39b 643c 3f45 ec3c 86ee cc3d
00000040: 4b34 80bd 66f3 a4bd 0834 21be 4cd2 34be
00000050: 4693 14bd e597 05be d61d e63d 9b4a 813d
00000060: a272 b33e c2ba 7c3e 99ef bc3e 9c30 883e
00000070: e6d7 b13d 8563 e23d 0e88 4ebc 4245 50be
00000080: 2d0d 633d 5bf0 ac3d 1730 25bd 0a2e d13d
00000090: e759 173b 8ec6 0fbe 2fd1 af3e 7aa3 6b3e
000000a0: 101e 893c 64e2 ee3d adc0 383d 3615 19bd
000000b0: 447d 183e 4c1c 4b3c a380 b93d 0537 533d
000000c0: 4b2f 243e fb23 dd3d 7deb a7be e6a2 25be
000000d0: 681c bdbd afbc 9b3d f7ed 0d3e 2471 3b3e
000000e0: 770f 4cbe ed53 dfbd 26ee 453d e3be 4f3d
000000f0: c9a6 e2bd b1b0 17bc 2418 063e 2e1a 1f3e
00000100: be05 db3d 0d9a 073d 8b37 6fbd acfd 6ebd
00000110: 5358 8f3d e587 903d 84dd 853e beca 533e
00000120: 0869 7bbe 58ac 7bbe 5d4d 33bc 8732 92bc
00000130: 5b01 f7be 672a a3be b761 91bd 6efc 45be
00000140: 192b 5fbe f002 e0be 2b90 81be 80ad 93be
00000150: e1e4 bfbd 9514 1ebe 5f93 1fbe 9fa4 acbe
00000160: 8cf6 95be d79b 8dbe c353 063e 3d65 f83d
00000170: 18fb 19be 2dfa 1cbe f37d 4c3e 29e4 f93d
00000180: b250 1a3c 8b7d 2cbe c9f0 a83d e55f 69bc
00000190: 14c6 223d ebce 743d 10d6 803d d64c 993d
000001a0: 9761 4d3d 0d6e d33c 2dde 813e a64a 573e
000001b0: f7d9 9b3e a298 673e 7a23 073e 45c2 913c
000001c0: 87c2 2d3e e218 d93c 1364 ef3d 4914 163d
000001d0: f477 b6be 0e67 7abe 9a7d 4fbe e9a4 81be
000001e0: 1127 7d3d 31a2 c6bd 62ce 8a3d 9029 d83d
000001f0: d149 dbbc 16c7 913d f1dd 493d 953c d8bd
00000200: 8bbc a03d ce8a eabb d873 7c3e 7f28 413e
00000210: 198b 86bd 886f 0fbe 2d1b 2bbd c329 6f3c
00000220: ad6f d83d 4e83 e3bd 637f 1dbd 4c53 733b
00000230: c25e 16be ca78 ecbc d530 94bd b315 91bd
00000240: 34b3 7c3d cec1 62bd 1c1d 343c 93fb 8e3d
00000250: de59 8dbd f8e2 97bd 93c7 853d b175 383d
00000260: 9c98 f13d 1988 8b3c 8fb8 40bd 2b7f 3eb8
00000270: dede 76bd d870 bc3d 7902 9b3c ca8e 11bc
00000280: 65b4 dc3c c815 013c cc8e 8e3d e576 97bd
00000290: 689e 673c 09d0 3dbe 3ac0 543c de84 55bc
000002a0: b764 f1bd a991 bc3d 3db5 3fbd 801a 553e
000002b0: ed4c 813d 83d5 3dbb fac3 45be 2dd9 a23d
000002c0: 2c45 963e d506 5a3e 105a dd3e 86a4 903e
000002d0: 23d7 2ebe d415 c23d 15cd 18be b980 efbc
000002e0: 2aaa 803e d2f1 303e 2e98 4e3e bec2 983e
000002f0: 37ce 39bd 14c2 00be 759a 753e 2045 473d
00000300: f4ff 853e f88f e33b ff83 68bd b951 2ebd
00000310: 8ca1 163d dff6 3f3e 4eab 323e e594 1e3e
00000320: 3294 cbbd c51e 60bd 96cb 1e3d b0d3 4fbe
00000330: b7bc 5bbe ed28 a3bd 65bd 25be 1dce 8dbe
00000340: c537 e0bd fd49 6cbe 731d 053d 9706 613d
00000350: f55f 42bc 3178 97bd 62f4 273e b765 0a3e
00000360: 6d3f cc3d 5bd9 193d 7e05 043d 76cb 88bd
00000370: 17e5 83be e580 39be 277d a5be c94f 79be
00000380: 2c39 f73c 15e0 c7bc b791 673b 5144 943d
00000390: 94d4 cebd 8eeb 37bd 6482 f6bd 2c64 11be
000003a0: c4cf bcbd f2b8 17bd 5ba7 99bd 92d2 903d
000003b0: 8b4b 51be 520d 81be 3378 03be 89cd cebe
000003c0: d69a 713e e86f 1f3e 4c72 103d 1370 5b3d
000003d0: 8e5d cdbd 3317 81bd 5cb7 73bc 7311 873d
000003e0: a9c2 723d aa01 a8bc 3426 50bc 51d1 98be
000003f0: 3cf4 653e e4b6 c13e a4e6 5a3e f16a 8a3e
-0.0999186 0.021471316 -0.2597121 -0.3082269 -0.19986726 -0.22622758 -0.10763232 -0.068787314
0.51178974 0.36455214 0.13718112 0.043783862 -0.032656588 0.013953197 0.028841613 0.10006432
-0.06259974 -0.08054237 -0.15742505 -0.17658347 -0.036273263 -0.13046224 0.112361595 0.06313058
0.35048395 0.24680617 0.36901549 0.26599586 0.086837575 0.11054138 -0.01260568 -0.2033892
0.055432487 0.08444282 -0.040329065 0.102138594 0.0023094357 -0.14040586 0.34339282 0.2301158
0.016737968 0.11664274 0.045105625 -0.037373744 0.14891535 0.012396883 0.09057739 0.051566143
0.16033666 0.10797878 -0.3279685 -0.16175422 -0.09233934 0.07604348 0.13860308 0.18304878
-0.19927774 -0.109046794 0.04832282 0.050719153 -0.11066968 -0.009258435 0.13095146 0.1553733
0.106944546 0.0331059 -0.05840258 -0.05834739 0.069992684 0.0705717 0.26145566 0.20682809
-0.24551785 -0.24577463 -0.010943738 -0.017846359 -0.48243222 -0.31868288 -0.07098716 -0.19334576
-0.21793784 -0.4375224 -0.25305304 -0.28843307 -0.09369827 -0.15437539 -0.15583561 -0.33719346
-0.29289663 -0.2765796 0.1311789 0.12128685 -0.15037191 -0.1532981 0.19969921 0.12201721
0.009418653 -0.16844766 0.08249051 -0.014244054 0.039739683 0.059767645 0.06290829 0.074853584
0.050141897 0.025809312 0.2536482 0.2102457 0.3043973 0.22616819 0.13197127 0.01779283
0.16968738 0.026501123 0.116890095 0.03664044 -0.35638392 -0.24453375 -0.20262757 -0.2532113
0.061804835 -0.09698904 0.06777646 0.105548024 -0.026768597 0.07118051 0.049283925 -0.1055843
0.07848462 -0.00715766 0.24653566 0.18863104 -0.065694995 -0.1400739 -0.041773964 0.014597359
0.105681755 -0.11109029 -0.038451564 0.0037128506 -0.14684585 -0.02886619 -0.072358765 -0.07084217
0.06169434 -0.055360608 0.010993268 0.06981578 -0.069019064 -0.07416338 0.065322064 0.045034114
0.11796686 0.01703267 -0.04705101 -4.5417964e-05 -0.060271136 0.09201211 0.018922077 -0.008884141
0.026941488 0.007878728 0.0696083 -0.07395724 0.014136888 -0.1853639 0.0129852835 -0.013032166
-0.11786788 0.0920747 -0.0468037 0.2081089 0.063135006 -0.0028966374 -0.1931304 0.07951579
0.2934965 0.21291669 0.43232775 0.2825052 -0.17074256 0.0947682 -0.14921983 -0.029236184
0.25129825 0.17279747 0.2017524 0.29836076 -0.045362677 -0.12574035 0.23984702 0.048649907
0.2617184 0.0069446526 -0.056766506 -0.042558406 0.036775157 0.18746518 0.1744816 0.15486486
-0.099403754 -0.054716844 0.038768373 -0.20295596 -0.21458708 -0.0796679 -0.1618553 -0.27696314
-0.10948137 -0.230751 0.032498788 0.054937925 -0.011863698 -0.073959716 0.16401818 0.13515364
0.09973035 0.037560802 0.0322318 -0.06679432 -0.2576072 -0.18115576 -0.32322046 -0.24346842
0.030178629 -0.024398843 0.0035334656 0.07239593 -0.1009914 -0.044902377 -0.12036589 -0.14198369
-0.09219316 -0.037041612 -0.07502624 0.07071413 -0.20438974 -0.25205475 -0.12838821 -0.40391186
0.23594221 0.15570033 0.035265252 0.05357368 -0.1002761 -0.06303253 -0.014875259 0.06595125
0.059267674 -0.020508606 -0.012704421 -0.29847196 0.2245645 0.37834847 0.21377045 0.27034715

fc1.bias f4 [64]
00000000: 4154 853e c981 11bd 3ef0 493e 30f6 dcbb
00000010: b7fd 8bbe 25dc 0b3e c060 133e 6097 57be
00000020: 46f5 9a3c e3ec 77bd b935 8a3c 61fd af3c
00000030: 2cf3 afbd 596f 363e 9564 983e 9b55 c9bd
00000040: 30e6 73bd acfe 0d3e fcfa 023f 6b72 02bd
00000050: 868b c83d 2820 703e 6c2d 873d a99a 0e3e
00000060: 6689 8d3e f506 85bc 95a5 753e 245c b63e
00000070: ea03 e2bd e3ab 9d3e 353f cabe 5424 b13e
00000080: e90a 3e3e cd73 c83b 5ff5 bcbd 8f03 b43c
00000090: fec0 c23d eb0b a73d 406d 2cbd 1884 a43e
000000a0: 85c8 36be a443 473e e55c 92bb a374 03bd
000000b0: ddd2 1b3e eef1 cb3d fcd0 7e3e 54fc 323e
000000c0: 8c86 94be 0366 243e 4a5a 46be a727 fdbd
000000d0: d4ad 2ebe 495f 4a3e 78b4 6f3e f4fa 81bd
000000e0: 66ab 5e3d 95fe c5bc 8c16 173e 563b 93bc
000000f0: cc88 3a3e 718f 0fbd 5db6 c53c 07fa fb3d
0.26040843 -0.035524163 0.19720551 -0.006743215 -0.27342007 0.13658197 0.14392376 -0.21053839
0.018915784 -0.060528647 0.01687132 0.021483125 -0.08591303 0.17815913 0.29764238 -0.09830781
-0.059545696 0.13866681 0.5116422 -0.0318474 0.09792237 0.23449767 0.066004604 0.13926186
0.2764389 -0.016238669 0.23988946 0.35617173 -0.11035903 0.30795202 -0.39501348 0.3459803
0.1855885 0.00611732 -0.09226488 0.021974353 0.095094666 0.0815657 -0.042096376 0.3213203
-0.1784993 0.19459397 -0.0044666403 -0.032093655 0.15217157 0.09958254 0.24884409 0.17479068
-0.290089 0.1605454 -0.1937038 -0.12361079 -0.17058498 0.19762911 0.23408687 -0.06346694
0.054362677 -0.024169246 0.14754695 -0.01797263 0.18216246 -0.035048906 0.02413481 0.12303548

fc2.weight f4 [10, 64]
00000000: e66d 783c 8388 553e 5d6b f6bc d5f4 46be
00000010: a051 f53c 0873 50bc d48f 3e3e ee7e 89be
00000020: 9bfa 9e3e 7cb0 2b3e 9755 453e d3eb 653b
00000030: 7e99 78bd 684e 4c3e 0ae5 6c3e eeee bbbe
00000040: 6526 b7be 8192 ccbe 0caa e13c 3061 efbc
00000050: 522c cabd 72d9 74bd d5f9 6b3d 7709 e43e
00000060: 32d3 e3bd f256 9b3d 1757 993e 8307 2fbd
00000070: 8f65 debe 34e9 39be 9723 e5be 6f9e 573d
00000080: 49a2 52be dd41 7e3d 8125 cf3d 4e0b b33d
00000090: d1f6 3fbd f5ca 483e e4c2 3abe 14bd 5fbe
000000a0: 3834 823e 09b3 413d 0c58 663e 8f2a 553d
000000b0: 72a3 5abe 1a60 0f3e 7d91 5cbd ab98 fd3d
000000c0: b9c2 b1be 719d 963e d068 d8be 4c83 a73e
000000d0: 5cd2 2d3e da26 0abf bf49 b73e fc6b 5fbe
000000e0: c23e b4be 5ecf 093e 3363 94be c525 8b3d
000000f0: 9a61 973e 826b 923e bf0d 09bf 1ba2 87bd
00000100: 9cad e83c 36cf 973d a861 8a3e e91f 193d
00000110: 1297 2a3e 0463 8ebe 21ac 113e 4dcf 69bd
00000120: f989 f1be ed72 903e 1047 3abd 04fe 583d
00000130: 12ed a83d c062 163d 4fec c6be 2713 d2be
00000140: cdec 463e ce51 903e 0652 a23d 3b0d 4f3f
00000150: 8f0f c03e 074f 703e 3fc1 dfbe 1789 e0be
00000160: 1448 f6be 82ff f83c 9911 b4be 7286 63be
00000170: da28 493e a6a1 1ebe 428b 4b3d d7aa b4be
00000180: 4129 a3be 071c d13e b952 d13d 599a 0fbf
00000190: 4eec 883e 3900 4e3c 1a2b 963d efcd ab3d
000001a0: 8c51 bfbe 77fc 963e b9cc efbc d361 bdbe
000001b0: 329c 083e 926f a43d ea58 20bf d28d 4d3e
000001c0: 581f 383d fd46 80be 00b2 f5be 96a7 98be
000001d0: 09f2 a53d f785 8ebe 5f2b 473e ee9f b1be
000001e0: 98e0 8abd d7a7 e53d 0902 43be 20ac 8abd
000001f0: 0dec fcbe a5fd df3e 5716 0bbf 2ae6 c63e
00000200: e412 d4be 8520 c83d a9b9 32be ce14 093e
00000210: 5845 0e3e be7e 16bd 5524 15be 4895 4cbe
00000220: 68bb 9c3e c024 d73d b1f0 3f3e e244 9ebd
00000230: 30fd 35bb 85a3 1b3e b8d2 96bd d7e8 e63d
00000240: 11fd 13bd 2e8d 813e d71a d6be a489 9a3d
00000250: 134b b2be 3ae7 91be 9071 213e c4b9 09bb
00000260: d818 08be fb8f 91bc 7af8 d5be 3628 2f3c
00000270: d621 ce3a 3b84 d8be 0a1c 923e 8569 5cbe
00000280: 872d 20be 04fb 453d 4916 afbd c083 1b3e
00000290: e080 c1be d7e1 183d 85d7 743d 4e1f 6dbe
000002a0: 77d1 fc3e 0a4b dbbe 4798 3b3e faf0 91bd
000002b0: b61d dcbe 2d11 0fbd c1a0 853d 3aa9 38bc
000002c0: 9e7f 1f3e 2515 053e e570 9c3e 8d04 4c3e
000002d0: 54d6 e83d 2d62 513e b0f4 00be bbff 2a3e
000002e0: fc58 3a3e 9b39 e33d 2e29 94be a5f6 afbc
000002f0: 8ef4 343e 8b36 e83e e657 92be d317 c6bd
00000300: fa9b dc3c 797a 9dbd 92b2 b9be 426a 6b3c
00000310: e60b c9be 3bb5 b33e a690 94bd 3bc5 83b9
00000320: 3e47 dc3d 6fce 4fbd 1bfb bfbd bdee e13c
00000330: 1d25 acbd 6f7e 673e 1392 343e 407a 883d
00000340: 1c5b 8dbe 6aa0 03bd 16fe ae3d 1e7b 0e3b
00000350: 6ef9 35be 2cdf 27be adbe 0e3d db74 a9be
00000360: dfc4 b83e 95a9 bfbe 3960 50be 0001 2bbe
00000370: b4f3 c2bd 9603 64bb c693 5e3d 8cee ff3d
00000380: 1637 b33e 33dd 00bf 26bf d23b e1aa 77bd
00000390: adff 393e 4da3 12be dcb1 82bd b6c9 c9bd
000003a0: 668c 65be a6b7 3abe fdd7 b9be b190 e7bd
000003b0: 0e19 6b3e edc3 80bd 0b9f b6bc de78 d23c
000003c0: f4c0 e03c e082 93bd b0ff 42bd 8d13 093d
000003d0: 6b98 10be 074b 44be 6ca2 82be d93d ce3d
000003e0: ddfb 413e 67d1 6e3d 7c9e be3e abd7 193d
000003f0: 42db 463e 661b 90bd 7a4e c5bd 1ccf 133e
0.015162921 0.20852856 -0.030080492 -0.19429334 0.029946148 -0.012722738 0.18609554 -0.26854652
0.31050572 0.16766542 0.19270931 0.003508319 -0.060693257 0.19951785 0.23134246 -0.36705726
-0.3577148 -0.39955524 0.027546905 -0.029221147 -0.09871735 -0.059777685 0.057611305 0.4453847
-0.11124267 0.07584943 0.29949257 -0.042731773 -0.43436858 -0.18155366 -0.44753715 0.05264133
-0.2056972 0.06207453 0.10114575 0.087423906 -0.04686624 0.19608672 -0.18238407 -0.21849471
0.25430465 0.04728988 0.22494525 0.05204254 -0.21351412 0.14001504 -0.053849686 0.12382635
-0.34718874 0.29416993 -0.42267466 0.3271736 0.16974777 -0.5396553 0.3579845 -0.21818537
-0.3520413 0.1345801 -0.28981933 0.06794313 0.29566652 0.28597647 -0.535366 -0.06622716
0.028403096 0.07412569 0.2702763 0.037383948 0.16659191 -0.27809918 0.14225818 -0.057082463
-0.47175577 0.2821268 -0.045477927 0.052976623 0.082483426 0.03671527 -0.38852164 -0.41030237
0.1942627 0.28187412 0.07925801 0.80879563 0.3751187 0.23467647 -0.43702123 -0.4385459
-0.48101866 0.030395273 -0.35169676 -0.22219256 0.1964449 -0.15491351 0.049693353 -0.3528659
-0.31867412 0.40841696 0.10220856 -0.5609489 0.26742786 0.012573295 0.0733244 0.08388888
-0.37366903 0.2948949 -0.029272424 -0.36988696 0.13340834 0.08029093 -0.6263567 0.20073631
0.044951767 -0.2505416 -0.47987366 -0.29815358 0.08102805 -0.27836582 0.19450139 -0.3469233
-0.06781119 0.112136535 -0.19043745 -0.067711115 -0.49398842 0.43748203 -0.5433096 0.38847476
-0.41420662 0.097718276 -0.17453636 0.13386843 0.1389364 -0.036741965 -0.14564641 -0.19978821
0.3061173 0.105050564 0.1874416 -0.07727982 -0.002776932 0.15199097 -0.0736441 0.112748794
-0.036130015 0.25303024 -0.41817352 0.07545784 -0.34822902 -0.28496724 0.15765977 -0.0021015266
-0.13290727 -0.01776885 -0.41791135 0.010690739 0.0015726637 -0.42288384 0.28537017 -0.21524628
-0.15642367 0.04833509 -0.085491724 0.15186977 -0.37793636 0.037324753 0.059775848 -0.23156473
0.4937856 -0.42830688 0.18319808 -0.07126041 -0.42991418 -0.03492849 0.06524802 -0.0112708155
0.15576026 0.12996347 0.30554882 0.19923611 0.11369005 0.20447607 -0.12593341 0.16699116
0.18198007 0.11094972 -0.28937668 -0.021479914 0.17671415 0.45354113 -0.28582686 -0.09672513
0.026929844 -0.076893754 -0.3626905 0.014368596 -0.3926689 0.35099205 -0.07254152 -0.00025133215
0.10755776 -0.05073398 -0.093740664 0.02757966 -0.08405516 0.22606824 0.17633848 0.06663942
-0.27608573 -0.032135405 0.08544557 0.0021740864 -0.17770931 -0.16393727 0.03484981 -0.33096966
0.360877 -0.37434068 -0.20349206 -0.166996 -0.09519139 -0.0034792176 0.054340146 0.12496671
0.35002965 -0.50337523 0.006431478 -0.060465697 0.18163939 -0.14320107 -0.0638158 -0.098529264
-0.22416839 -0.18234119 -0.36297598 -0.113068946 0.22958776 -0.0628737 -0.022292634 0.0256924
0.027435757 -0.07202697 -0.047607124 0.03346591 -0.14120643 -0.19169246 -0.25514543 0.1007039
0.18943734 0.05830517 0.3723029 0.037559193 0.19419578 -0.07036476 -0.09634109 0.14434475

fc2.bias f4 [10]
00000000: 8e3f 653e 4d54 7ebd 27fc d8be 612f 3d3e
00000010: 603f c4bd 6587 073e faae 88bd b0d7 4abe
00000020: 2c5f 10be 900b 803e
0.22387525 -0.062092114 -0.42379877 0.18475105 -0.095824 0.13235243 -0.06673999 -0.19808841
-0.14098805 0.2500882
